timechamber/models/ant_sumo/policy.pth (torch, 639728 bytes, 36 tensors)

value_mean_std.running_mean f8 [1]
000000 34 e9 90 43 cf 31 de 3f
       0.4717901382279195

value_mean_std.running_var f8 [1]
000000 e0 70 f9 0b 95 ff 31 40
       17.998368023298895

value_mean_std.count f8 []
000000 00 00 04 00 c0 8d 16 42
       24216862721.0

running_mean_std.running_mean f8 [40]
000000 08 64 f0 29 57 9b c2 3f 1d 84 c0 54 39 fb b0 3f
       0.14536561534694692 0.06633337325230611
000010 09 01 32 74 9c 76 de 3f e2 1d f1 ed b5 c4 33 bf
       0.47598944995117215 -0.00030164186131684094
000020 de 49 c7 20 fe 9d 7a 3f 44 f7 3f 92 5b b4 c3 3f
       0.00649832981840112 0.15394158021075033
000030 14 66 c6 50 83 5d e6 3f 28 73 7f b2 4f 34 a7 3f
       0.6989151551853774 0.045320978678978385
000040 df 63 1c 35 98 d4 94 bf 8d f1 c7 9b 9a 6e 84 bf
       -0.02034223388827516 -0.009976585272845973
000050 9b 92 5f 0e 39 69 7d 3f 72 0c f6 85 69 ff 8a 3f
       0.0071804264789291595 0.013182472611111804
000060 a5 bd c0 11 af b8 99 3f d2 41 4d 6d 58 ba c1 3f
       0.025118575533438343 0.13849931084634065
000070 31 a2 e8 7a 6a 37 ef bf 6c 93 64 98 ac 3b c2 bf
       -0.9755146408616097 -0.14244611207063984
000080 da cb 72 9a ef 1d ed 3f 07 1a 2d d7 fb f7 dd 3f
       0.9099042908259165 0.46826072705553695
000090 dc 58 3e f1 80 33 ef 3f c1 e3 71 c0 20 27 e7 3f
       0.9750370704448659 0.7235263594330875
0000a0 32 0f d6 1d 5d 3d ef bf 1d c3 b5 dd d9 48 89 bf
       -0.976240690492409 -0.012345983580162529
0000b0 f2 7a 18 5a 3a 22 9f 3f f9 b6 66 ee 76 df a4 bf
       0.03040400671863614 -0.04076739940806635
0000c0 b0 00 13 f5 d8 f4 b2 bf c0 ab 38 a0 c8 22 71 3f
       -0.07404857619531202 0.004183562941345309
0000d0 83 44 97 41 c6 d4 96 bf 2c db 60 89 5a 0b 86 3f
       -0.022296045068121117 0.010763842885450702
0000e0 d5 5c ef 49 0a a4 87 3f 1d b9 05 f7 98 3d c3 3f
       0.011543350583379222 0.15031730710638494
0000f0 99 38 91 b3 3a cf ab 3f 91 d8 ac 18 88 b5 de 3f
       0.05431540910704875 0.47982981118855955
000100 83 28 0d e1 7d ab 39 bf 9e 05 0a cd 86 a1 75 3f
       -0.0003916914293326039 0.005280996862553703
000110 4d 15 f3 f9 d9 ce b9 3f a3 d5 e6 e8 2d 92 e5 3f
       0.10081255295070442 0.6740941571103359
000120 d9 ba f5 8a 7d 40 74 bf 4d 17 a7 60 35 9b 88 3f
       -0.004944315339669735 0.012014786731821348
000130 34 c9 cb 3e 7d ed 7e 3f 8f 30 ab 36 16 92 80 3f
       0.007550706138078223 0.008091138404232616

running_mean_std.running_var f8 [40]
000000 01 f0 44 c0 22 86 f1 3f 6f 7f f6 2b 28 d8 f2 3f
       1.095247984935668 1.177772685747154
000010 d2 58 f1 d1 f4 6e 95 3f 7e 32 ec a5 73 c5 87 3f
       0.020931077302827124 0.01160707807641725
000020 f9 23 72 6f 7a 5d 86 3f 6e 35 6d e1 9f 87 d4 3f
       0.010920483137185842 0.3207778645927054
000030 1d 9d 03 08 88 7e c2 3f 39 3c b8 cf fb 47 fc 3f
       0.14448643103899253 1.7675741304444854
000040 1d a4 99 12 05 04 fe 3f 84 59 5b 91 ad ab e1 3f
       1.8759814001625792 0.5522067870140721
000050 ee e4 36 8a cc 49 01 40 01 e6 9f 13 fc 3b 01 40
       2.1610346601488493 2.1542893918201576
000060 a2 32 fb 5e 46 0c 20 40 0a d3 7a 63 7d 94 da 3f
       8.023974388278763 0.41531309809515504
000070 6e 68 fc d0 77 7d 8b 3f f3 d7 12 4a 00 ac e0 3f
       0.01342290503048479 0.5209962317228459
000080 ed 24 cf 1d 46 15 a4 3f d1 16 ad df 7f 82 db 3f
       0.03922480691796602 0.4298400577866746
000090 bb 42 50 28 30 29 8f 3f df 37 0c 57 1d b8 c7 3f
       0.015215278845091764 0.18530623197915383
0000a0 2b 68 cd 11 1a 87 91 3f f8 9e 8e 13 1e f5 13 40
       0.017116935097284774 4.989372544841665
0000b0 e6 c5 f4 12 33 ba c4 3f ee 3d 28 5b 93 10 1e 40
       0.16193235803215983 7.516187118846103
0000c0 0a 73 54 1e 57 67 e6 3f ee fd 3e 92 a8 b9 11 40
       0.7001147835140682 4.431307110876771
0000d0 8f 43 09 61 a6 7b c4 3f 16 94 b9 a6 3f 88 02 40
       0.16002349603743624 2.3165276551612903
0000e0 13 57 df ff 60 46 ad 3f e8 48 a9 f7 c3 4a f4 3f
       0.05717757342760712 1.2682532953518209
0000f0 9f 5d 5d 08 de b1 f5 3f de 5f 4f 20 c6 05 97 3f
       1.3559246374842144 0.022482963296937324
000100 f6 c8 22 36 9b c3 89 3f cf 8d 3f 90 a2 54 88 3f
       0.012580120648952402 0.011880178477389784
000110 54 4a 2d bd 34 96 d6 3f 5f 09 4a 24 c7 3a c4 3f
       0.3529178473883452 0.15804375907834875
000120 d8 cd 5c 44 d6 33 fc 3f 6d c9 c4 4f 9a 79 fd 3f
       1.7626555128489283 1.8421881786312853
000130 8a 54 61 37 f2 b1 7e 3f a2 72 c0 47 e4 6f 80 3f
       0.007493921430144055 0.008025916518869029

running_mean_std.count f8 []
000000 00 00 08 00 c0 8d 06 42
       12108431361.0

a2c_network.sigma f4 [8]
000000 5b 97 5f c0 a4 c8 28 c0 eb f6 17 c0 e0 cf 22 c0
       -3.493613 -2.6372461 -2.3744457 -2.5439377
000010 24 7d 15 c0 28 7d 12 c0 14 78 45 c0 68 77 75 bf
       -2.335763 -2.288889 -3.085454 -0.95885324

a2c_network.actor_mlp.0.weight f4 [256, 40]
000000 45 98 0f be 15 c1 9c 3d 25 f0 7b 3d ca d5 43 bd
       -0.1402293 0.07654015 0.061508317 -0.047811307
000010 ef 93 55 bd 38 a0 74 be 10 b3 75 bb 91 0e 3c 3d
       -0.052143034 -0.23889244 -0.0037490763 0.04591233
000020 01 c2 2d be 5e 21 58 bd 09 1d e5 3b 05 04 e6 bc
       -0.16968538 -0.052766196 0.0069919867 -0.028078089
000030 69 46 ae 3d 4a 37 de bd 83 a6 8f bc 75 16 ae 3d
       0.085095234 -0.10850389 -0.017535454 0.08500377
000040 bb 3a 11 3e d6 dc 78 bd 33 ff 02 bd 90 77 eb 3d
       0.1418256 -0.06075748 -0.03198166 0.11497414
000050 57 c9 11 bd f4 27 7f 3c 15 bb bc 3b c8 5a b7 3d
       -0.035592403 0.01557349 0.0057596066 0.08952862
000060 1c e5 d5 3c 00 2f da 3d 94 9c 32 bd db 00 0c 3e
       0.026110224 0.10653496 -0.043606356 0.13672201
000070 4f 7c 12 3d c5 96 a5 bd b4 4d 02 3f ad c4 9d be
       0.03576308 -0.08085398 0.50899816 -0.30814114
000080 be 34 3f bd ab f9 da be 14 ee 63 3e ad 64 1a 3e
       -0.04668116 -0.42768607 0.22258788 0.15077467
000090 da 16 43 be a3 f2 90 3e c9 69 82 bd 8a 5c c0 3d
       -0.19051686 0.28310117 -0.06367833 0.093926504
0000a0 e1 23 ac be 72 7c 38 be 52 84 5b 3e ec 57 7b bb
       -0.33621123 -0.18016222 0.21437195 -0.0038351966
0000b0 cd 09 7d 3b d4 92 09 be 9b de 85 bd 33 32 d3 be
       0.0038610578 -0.13434917 -0.06536599 -0.41249236
0000c0 a6 92 8a be ea 7c ca 3d f0 ed 94 3d b9 52 6e bd
       -0.2706501 0.09887107 0.072719455 -0.05818436
0000d0 4e 9b 38 3e 84 58 ca 3d 26 1a ec 3c 8a 69 85 3b
       0.18027994 0.09880164 0.028821062 0.004071419
0000e0 6a d0 d3 3c fd 2a a1 3d 90 a6 10 3e ac 76 7c be
       0.025856216 0.078695275 0.14126039 -0.24654645
0000f0 bd 8d 31 3d 71 35 0f 3e 83 d1 81 bc 3b 63 a4 3e
       0.043348063 0.1398523 -0.015846973 0.32106957
000100 06 3b 39 3c b3 6a 83 3d 71 3c 2c bd fe d5 bf bd
       0.011305576 0.06416836 -0.04204983 -0.09366988
000110 54 68 aa bc 88 81 41 be 8d e5 29 3f 0c aa 0e 3e
       -0.0208017 -0.18897069 0.6636589 0.13932055
000120 46 85 45 bd 26 c8 41 bd 3c e0 f7 3d 8b 1d 2f be
       -0.048222803 -0.047310017 0.12103316 -0.17101113
000130 a2 69 08 bd 4f b9 87 be 71 3d 17 3e fb 05 58 3d
       -0.033303864 -0.26508567 0.14769532 0.05274008
000140 05 cf 80 bd 68 40 84 be 9c 4c c7 3d 3d d3 e5 3d
       -0.06289486 -0.25830388 0.09731409 0.11221931
000150 e0 3a 75 bd 16 10 3a bc f8 82 c8 bd 34 9c f1 bd
       -0.0598706 -0.011356374 -0.09790605 -0.117973715
000160 ad c7 4c 3e 62 1a ea 3c 10 16 f2 3c 05 2f 9b 3d
       0.19998045 0.028577033 0.029551536 0.07577328
000170 a0 b3 cd bc bb 1c 82 be 0e 49 6e 3e c0 0a b8 3d
       -0.025110066 -0.25412545 0.23270056 0.089864254
000180 23 17 88 3b a1 d7 d2 be d5 33 69 bd 34 06 5e 3d
       0.0041531487 -0.41180137 -0.056934197 0.054205135
000190 93 32 7e 3e 3d 40 31 3d 2b f4 ba 3c ad 63 29 be
       0.2482398 0.043274153 0.022821506 -0.1654193
0001a0 ad 0d 8d 3a 53 6c 47 bd 55 69 8d bd 2d 68 8d bd
       0.0010761522 -0.04868729 -0.06904856 -0.069046356
0001b0 dc 16 8c 3d 1c 35 8b be 62 5c 15 3e 93 e4 85 3e
       0.068402976 -0.27188957 0.14586022 0.2615095
0001c0 5c 6c 6e 3e 8f 7b a7 bd 52 6b 09 be 9e fc bc be
       0.23283523 -0.08177864 -0.13419846 -0.36911482
0001d0 05 cb 6a 3d b9 a9 0c be 34 00 4e 3e ba fd e1 3e
       0.05732252 -0.13736619 0.20117265 0.4413889
0001e0 16 83 4c 3e cc c1 35 3d 3c 14 00 3d 11 98 01 bf
       0.1997188 0.044374272 0.031269297 -0.5062266
0001f0 9b 1e b3 3a 19 3a 9b 3e ca a0 bf bf 25 48 f2 bc
       0.0013665737 0.30317762 -1.4970944 -0.029575417
000200 e0 eb 8c 3d 2d a0 97 bd 13 d6 40 bd d9 05 22 be
       0.06880927 -0.07403598 -0.047079157 -0.15822543
000210 bb 2e 9c bb 37 56 01 bd 3a e5 f2 3c a6 e1 ce 3e
       -0.004766313 -0.03157636 0.02965032 0.4040653
000220 99 bd e8 bd f4 8b 7f bd b1 04 21 bd c8 a5 63 be
       -0.11364288 -0.06238933 -0.039311115 -0.2223121
000230 6e 9f 8f 3c f3 42 e6 3e 5e 8c 34 bd 24 1d 1f 3f
       0.017532077 0.44972953 -0.044079177 0.6215384
000240 09 2a 58 bd e7 77 df be 66 fc 30 bd 47 00 92 be
       -0.052774463 -0.43646166 -0.043209456 -0.28515837
000250 a5 6e b5 bc ff 68 4c bd fc fe 36 3e 94 10 b6 3d
       -0.022147486 -0.04990482 0.17870706 0.08889881
000260 b2 c4 fe bc 71 58 c0 3d e5 22 49 3d 95 97 4b 3e
       -0.031099651 0.09391869 0.049105544 0.19882043
000270 72 8d 78 ba bc 41 14 be cb 53 35 3e ff 9c 19 3d
       -0.0009481526 -0.144782 0.17707746 0.03750324
000280 1d fe 2b be 52 6c 32 bd 87 35 62 3d 79 0e 23 3e
       -0.16796155 -0.043560334 0.05522683 0.1592349
000290 92 ec 8b bc b1 78 b9 be 82 b2 44 3e 7f fd b7 be
       -0.017080579 -0.36224893 0.1920872 -0.3593559
0002a0 f4 7d 08 be bc 9e 90 3d bc 4f f3 3d e3 30 68 bd
       -0.13329297 0.07061526 0.118804425 -0.056687247
0002b0 59 65 c3 be f9 a7 9e bd e9 1f 22 bd 4b 7f 4d 3e
       -0.3816326 -0.07746882 -0.039581213 0.2006809
0002c0 34 59 ce 3d f6 03 66 be 93 52 f3 bc b4 1f 55 3d
       0.10075608 -0.22462448 -0.02970246 0.052032188
0002d0 a1 01 26 3e b8 fc 6f 3e 63 6a a6 3d 42 b3 2f 3d
       0.16211559 0.23436248 0.081257604 0.042895563
0002e0 fe 1d 44 bd 28 95 8e 3c a1 e5 cb bd a2 40 5d be
       -0.047880165 0.017405108 -0.099559076 -0.21606687
0002f0 83 40 e7 3d a2 14 70 be 89 ea 17 be 4a 01 35 3e
       0.112916015 -0.23445371 -0.14835562 0.17676273
000300 62 50 0e 3e ee 7c 9a 3d 85 d0 d0 bc 2a 5c 07 3e
       0.13897851 0.0754336 -0.025490055 0.13218752
000310 60 7c 19 bd 15 75 bb 3c 65 43 2d 3e 3a 07 b4 3c
       -0.03747213 0.022882978 0.1692024 0.021976102
000320 f0 bc 4f 3e 24 cb 36 3c f3 0d bb bd 1e 5c 41 bb
       0.20286918 0.011156831 -0.0913352 -0.002950437
000330 e9 5e 25 3d 95 6d 6c 3c 11 68 5a be 7e 6d 8d 3d
       0.040373717 0.014430423 -0.2132876 0.069056496
000340 a2 51 d9 3a ca 72 05 3c 57 40 c7 3b 9c 5b 3f 3d
       0.0016580115 0.008145044 0.006080668 0.046718225
000350 cd 39 c6 3d 50 a6 60 bd 1b 52 94 bd f9 ab e0 3d
       0.096789934 -0.054846108 -0.07242223 0.10970301
000360 0d 7d 72 3c 81 5a 3c bd 26 c9 1a 3e 5a aa b4 bc
       0.014800322 -0.04598475 0.15115795 -0.022053886
000370 e8 91 88 3d 5c f3 f5 3c 09 1f f8 3c b6 5c 4e 3d
       0.066684544 0.03002327 0.030288236 0.050381385
000380 8f 7c 60 3d 20 6d 24 3d d1 b2 90 3c 94 d5 b4 3c
       0.05480629 0.040143132 0.017663391 0.022074498
000390 29 60 2f bc 40 48 12 bf 0f 15 1e 3d a5 ea f8 3c
       -0.010704079 -0.57141495 0.0385943 0.030385325
0003a0 76 12 59 3f c3 cc 6d 3f 72 2a 4a 3f 67 72 3e 3f
       0.84793794 0.92890567 0.78971016 0.74393314
0003b0 0a 23 55 3e 0e a4 1b 3e 8e cb 3e 3d 53 6d 84 3d
       0.20814148 0.151993 0.046580844 0.064661644
0003c0 bb ed f8 3d af fe ab bc 11 f9 6d bd d1 23 88 3e
       0.121547185 -0.020995466 -0.058098856 0.26589826
0003d0 f4 fd a4 3e 26 40 49 be 8d 91 95 3e 28 f7 19 3e
       0.32225 -0.19653377 0.2921261 0.15035689
0003e0 e8 b5 f8 bd a3 99 42 be c8 54 90 3d e1 f7 ea bd
       -0.12144071 -0.1900392 0.07047421 -0.114730604
0003f0 7c 00 8b 3d 17 44 81 bd 44 45 01 3d bb 46 98 bd
       0.06787202 -0.06311815 0.031560197 -0.07435366

a2c_network.actor_mlp.0.bias f4 [256]
000000 ac 12 e9 bf 41 72 27 bf 0b 0c d6 be 8d c2 8f be
       -1.8208823 -0.6540871 -0.41806063 -0.28078118
000010 cf c4 71 be 23 ef 4b bf 65 18 d6 3f f7 5f 1d bf
       -0.23610233 -0.7966177 1.6726195 -0.61474556
000020 10 1f 9a 3d 39 ad 60 be c4 3e b8 be e6 03 cf 3e
       0.07525456 -0.21941079 -0.35985386 0.40432662
000030 6b cb 8f bf 22 f5 93 bf 26 07 f2 bd f3 06 ca be
       -1.1233953 -1.1559184 -0.1181777 -0.39458427
000040 57 18 0a 40 32 98 86 bf 74 fa c1 be da 82 e9 bd
       2.1577356 -1.0515196 -0.37886393 -0.11401911
000050 a8 0c 30 bf 6d bf 60 bf 36 35 1b bf 61 4a 0b bf
       -0.6876931 -0.8779209 -0.6062807 -0.5441037
000060 95 f7 3e bf 95 b2 46 be 7c 33 60 bf 72 2b d5 3d
       -0.7459653 -0.19404061 -0.8757856 0.10408677
000070 5a 6d 3c bf e4 61 97 be 6a cb 10 bf 14 02 44 be
       -0.7360436 -0.29566872 -0.56560385 -0.19141418
000080 51 78 24 bf cc a2 10 3d 14 1e 8c bf 1d 89 03 c0
       -0.6424609 0.035311505 -1.0946679 -2.0552437
000090 54 0e 82 bf cb 4e b0 3f 7e 72 d4 bd 3c 38 36 bf
       -1.0160623 1.3774046 -0.103734 -0.71179557
0000a0 79 04 eb be c3 6f cc bf b5 50 21 bf 81 39 c9 3d
       -0.4590185 -1.5971607 -0.63013774 0.09825421
0000b0 a7 ba 81 3f db bf f2 be d6 e5 4f bf 9b 16 b0 3e
       1.0135087 -0.47412 -0.81210077 0.34392247
0000c0 e1 fd 13 3c 2e 6a 41 bc f7 3d 0b bf 8b 63 a2 3e
       0.009032697 -0.0118051 -0.54391426 0.3171657
0000d0 49 f9 57 bf 9d 33 80 be a3 1a 5c bf 81 e4 43 be
       -0.84364754 -0.25039378 -0.85978144 -0.19130136
0000e0 b9 9a 33 bf c4 75 8d bf b8 e1 be be 9f 44 11 bf
       -0.70157963 -1.1051564 -0.37281585 -0.5674533
0000f0 b3 bc 0c 3c 1c 06 af bf ca aa c8 3e 62 ba 11 be
       0.008589911 -1.367374 0.39192802 -0.14231256
000100 1b 98 b5 3e dd 87 41 3e 7c 37 a8 be 85 b1 bb be
       0.3546761 0.18899484 -0.3285483 -0.36658874
000110 a5 ac ff 3d 05 f4 4d bf c3 03 35 3f 9d 87 f4 be
       0.12484101 -0.8045047 0.70708865 -0.47759715
000120 f8 4d 39 bf 67 93 3b be 1d 75 42 bf cc 1b 81 bf
       -0.72384596 -0.18317948 -0.7595995 -1.0086608
000130 96 85 a1 bf 53 3a 84 bf 51 4b 22 bf a6 03 52 bf
       -1.2618892 -1.0330299 -0.63396174 -0.8203682
000140 e3 b8 87 bf b8 bf a4 be e7 f6 0c bd 8c d0 dc 3d
       -1.0603298 -0.3217752 -0.034415152 0.10781965
000150 7c e5 33 3f 62 89 03 3c cf c1 e8 be c0 d7 52 be
       0.7027204 0.00802836 -0.45460364 -0.20590115
000160 8a d3 29 bf 8d 35 46 bf 30 ce 14 3e 25 c3 f7 3d
       -0.6633841 -0.7742546 0.1453178 0.12097768
000170 bf 4c e7 3d ea 14 90 bf d4 d3 1e bf 6f f1 9b bf
       0.11293935 -1.1256382 -0.62041974 -1.2183055
000180 5c 9a 3b bf 33 3f 94 3e 49 68 86 bc e7 c5 b5 be
       -0.7328241 0.28954467 -0.016407149 -0.3550255
000190 ff 6e a7 bf 07 2d 12 bf f5 0e 6a 3f 2d 3b 11 3f
       -1.3080748 -0.57099956 0.9142907 0.5673092
0001a0 0f a0 c7 bf 44 c5 9a be 56 87 6e bf c6 d3 bb bf
       -1.5595721 -0.30228627 -0.93175256 -1.4674003
0001b0 34 28 11 3e 80 21 e6 be af 94 07 bf e7 76 93 bf
       0.14175493 -0.44947433 -0.5296125 -1.1520661
0001c0 95 b0 2a 3d 3f 7d 8f bd 7c 90 24 bf 11 33 67 bf
       0.041672308 -0.07006311 -0.64282966 -0.90312296
0001d0 58 aa 54 bf 51 ba 21 bd 78 ce e2 be b5 ae 03 bf
       -0.83072424 -0.039484326 -0.44298148 -0.51438457
0001e0 1a c7 c4 be eb 6f cc be 2a 24 cb bf 9c c2 25 bf
       -0.38433152 -0.39929137 -1.5870411 -0.64750075
0001f0 4c bc ee be b1 0b 1b bf 22 aa fb 3e 8f e7 65 3f
       -0.46628034 -0.60564715 0.4915324 0.89806455
000200 07 6d 05 40 d8 7f 2c bf ea e5 db be f8 cd aa bf
       2.0847795 -0.67382574 -0.42948848 -1.3344107
000210 ba e1 e2 be 1d 4f 8a bf 62 34 e3 be fe 65 2d 3e
       -0.4431284 -1.0805393 -0.44375902 0.16933438
000220 37 c7 37 bf 5c 90 70 be 83 fb 45 bd 91 b2 ea bf
       -0.7178835 -0.23492569 -0.048335563 -1.8335744
000230 be 26 b7 be f4 86 2b 3f 6a a7 f9 3d 53 5c 1e bf
       -0.35771745 0.670028 0.12190135 -0.61859626
000240 83 3b d9 be f4 ba 4c bf 73 15 3e be b9 a3 aa 3f
       -0.42428216 -0.7997277 -0.1856287 1.3331214
000250 3e c9 fe bb 60 63 8f be 2a 12 cc 3e f2 66 9f bf
       -0.007775455 -0.28005505 0.39857608 -1.2453291
000260 4d d8 52 3d a6 4e 32 bf e2 84 a1 bc eb ff 0e bf
       0.05147581 -0.6965126 -0.019716684 -0.5585925
000270 2d 83 8a bf f1 0a e2 3e c5 79 e3 bf bf bc 4e bf
       -1.0821282 0.44148973 -1.7771536 -0.80756754
000280 9b 09 ee be e4 3d 4b 3d 39 88 d4 3e 83 59 01 3f
       -0.46491703 0.04961957 0.4151018 0.5052721
000290 86 f8 bb be 18 d3 53 bf 19 cb eb be a8 55 0d bf
       -0.36713046 -0.8274398 -0.4605339 -0.55208826
0002a0 ac a8 8c bf 97 b8 69 bf 8a 34 d0 be d6 ff 24 be
       -1.0988975 -0.91297287 -0.40665084 -0.16113219
0002b0 88 a6 18 bf 20 bb 1b bf a2 2a 1b 3f 66 5d c0 be
       -0.59629107 -0.60832405 0.6061193 -0.37571257
0002c0 51 bd 70 bf 09 c9 e7 be f1 09 84 bf 12 0c 1a be
       -0.94038874 -0.45270565 -1.0315534 -0.15043667
0002d0 2c 9b e3 be 44 64 70 be 86 bc 1b bf 34 d5 51 3d
       -0.44454324 -0.23475748 -0.6083454 0.051228717
0002e0 76 75 f5 be fc 99 64 bf 36 3b 30 be 9f 60 72 3f
       -0.47941178 -0.8929746 -0.17210087 0.9467868
0002f0 1b 05 3e bf 50 34 a2 3d a9 c4 f0 3d d2 97 37 3f
       -0.7422654 0.07920134 0.1175626 0.71716034
000300 43 86 e0 be be 61 05 bf a9 43 d8 3b 4a 8d 0c be
       -0.43852434 -0.5210227 0.0065998626 -0.13725773
000310 d6 2e 0f 3e 6c 3a 08 bf 9a ba b4 bf 43 5c 21 bf
       0.1398271 -0.53214145 -1.4119446 -0.63031405
000320 3b fb a6 be 1e 7d b3 bc 3b 27 29 bf e7 5e 39 bf
       -0.3261355 -0.021910246 -0.66075486 -0.72410434
000330 c8 f9 19 bf f7 a8 22 bf 98 a1 3c bf 20 ad 70 3d
       -0.6014676 -0.6353907 -0.7368407 0.058758855
000340 de 30 8e bf 0e 39 46 bf 53 3e 28 3e 12 8b 8b bf
       -1.1108663 -0.7743081 0.16430025 -1.0901816
000350 72 07 cf be 10 92 8b bf 0f 67 69 bf ee 05 8a bf
       -0.40435368 -1.090395 -0.9117288 -1.078306
000360 6d 3f fc bc 3b ab e2 be a9 0b 96 bf 65 a1 80 3d
       -0.030791963 -0.44271263 -1.1722308 0.062807836
000370 8d 68 3b bf 48 b5 4a bf f1 90 de 3e a5 1f 20 bf
       -0.73206407 -0.79182863 0.43469957 -0.62548286
000380 49 f2 a7 bd 1b 7a a2 be 11 6c a8 be 44 8c 42 bf
       -0.08200509 -0.31733784 -0.32894948 -0.7599528
000390 d4 21 b7 bf a6 6e ef be 65 64 63 3d 78 a6 af be
       -1.4307199 -0.46764106 0.055515666 -0.34306693
0003a0 de d0 29 bf 1d 99 56 bd 55 cc 7d bf 46 45 e3 be
       -0.6633433 -0.052392114 -0.9913991 -0.4438879
0003b0 ad 1c 8a bf e9 5f a2 bf 0f cc 9b bf 4f 63 69 be
       -1.0790001 -1.268552 -1.2171649 -0.2279179
0003c0 cc 0b 9c bf 61 1a 05 bf 4a d8 fc be 0b 75 96 bf
       -1.21911 -0.51993376 -0.49383765 -1.1754469
0003d0 17 71 08 bf 18 a9 3d bf 41 ed 80 bf 97 bb 26 be
       -0.5329756 -0.7408614 -1.0072404 -0.16282497
0003e0 84 7c ae be f1 61 93 be 8a f4 40 3f 89 ef 80 3e
       -0.34079373 -0.2878566 0.75373137 0.2518275
0003f0 aa 18 65 3f e0 20 3d 3e 00 d6 9e be 85 59 85 bf
       0.8949076 0.18469572 -0.31022644 -1.0417944

a2c_network.actor_mlp.2.weight f4 [128, 256]
000000 c8 fc 3f be a1 54 95 be ec 40 98 be 5e ed a7 bd
       -0.18748772 -0.2916613 -0.2973703 -0.08199571
000010 a5 33 e1 bd 85 e1 20 be 48 7d 11 be 79 2f 90 3d
       -0.109961785 -0.15711029 -0.14207947 0.07040305
000020 bb 10 96 3d 18 55 29 bd ac e0 02 3e 49 30 6f 3d
       0.0732741 -0.041340917 0.12781018 0.058395658
000030 f9 c2 24 bd 03 b1 39 3e 82 e9 04 be c8 fc f9 3a
       -0.040225003 0.18133931 -0.12979701 0.0019072527
000040 88 86 9e be 5d a0 2e bd d9 dd a1 3c 51 88 85 3d
       -0.30962014 -0.042633403 0.019759106 0.06520141
000050 5b c6 47 be b2 ad ac 3e 82 39 ca bd 40 60 4d 3d
       -0.1950926 0.3372627 -0.0987425 0.05014062
000060 6b d2 8d bd b3 bf 3f 3e 74 b5 c9 3c 6c 86 db bd
       -0.069249 0.18725471 0.024622656 -0.10718998
000070 e5 9f 92 3d 2e f7 7e 3e 1c 0c e5 3d 25 9c 99 3c
       0.07159404 0.24898979 0.1118395 0.018751213
000080 e9 7e 30 3e 16 9a d2 3d 64 b5 82 3d 3e 39 06 3f
       0.17235912 0.10283296 0.06382254 0.52431095
000090 08 2e 26 bd 3d fc 25 be 72 c5 de bd 68 22 28 bf
       -0.040571243 -0.16209503 -0.108775035 -0.656775
0000a0 35 b0 08 3d 50 7d a7 3e 0c d0 e9 bb 18 42 a0 3d
       0.03337117 0.32712793 -0.007135397 0.078251064
0000b0 02 f9 03 be f2 79 34 3e e9 58 da be d7 ca 1e 3e
       -0.12887958 0.17624643 -0.42645958 0.15507065
0000c0 ad e8 1b 3d c6 b6 35 be 83 90 1e bf cc c4 a4 bd
       0.038063694 -0.17745504 -0.6193926 -0.080453485
0000d0 08 3a 2f 3f b1 dc ad 3d 1a bf aa be b4 0c c4 bd
       0.68447924 0.08489359 -0.33348924 -0.095727354
0000e0 b7 92 ec 3e da 71 6e 3d e4 ac c4 3d f1 eb 7c bf
       0.46205685 0.058214046 0.09603289 -0.9879752
0000f0 89 97 10 3b 0e 2f 08 3d 42 3d 4c be 7b de f7 be
       0.0022062978 0.033248 -0.19945243 -0.48411927
000100 6c f5 50 3e cd 6a 3c 3d fb e9 97 be 7f 70 00 bc
       0.20406121 0.04600029 -0.296707 -0.007839321
000110 6d 69 2e 3d 85 ca 31 3b 91 95 38 be 43 b4 31 bd
       0.04258101 0.0027128768 -0.18025805 -0.0433848
000120 b4 57 fa 3c 2e e8 fe bc f6 9a c2 3d 88 c7 63 3c
       0.030559398 -0.031116571 0.09502213 0.013902552
000130 ae 4a 74 3e df c1 e5 be 46 d7 e1 bc fa 53 0e 3e
       0.23856613 -0.44874474 -0.02756847 0.13899222
000140 53 11 ff 3d 6a 80 9a 3b 82 8b de 3e fc be fe 3d
       0.12454476 0.004715015 0.4346581 0.12438771
000150 5e e2 a2 3d 43 38 ac bc b3 c4 ad be b7 bf 1b be
       0.07953332 -0.021022921 -0.33939132 -0.15209852
000160 6c f3 ec bd 7e 3e 78 3e 45 3b 1b bd ad 50 40 3d
       -0.115698665 0.24242589 -0.03789832 0.04695194
000170 f6 6c 21 bd 58 02 7a 3e 2e 46 82 bc 42 17 11 3d
       -0.039410554 0.24414957 -0.015902605 0.03542257
000180 d1 26 e7 bc 9d f3 b0 3c 48 c6 01 3e e7 f6 26 be
       -0.028216751 0.021600539 0.12673295 -0.16305123
000190 c4 be 96 3c ab 28 f7 bb 89 ca 88 3b 57 53 79 3d
       0.018401511 -0.00754269 0.0041745347 0.060870495
0001a0 49 87 36 3b 7e 37 6e 3d 69 ec a5 bd 0d 2b 92 be
       0.0027851632 0.05815839 -0.08101732 -0.2854847
0001b0 61 82 eb bc da 99 00 bf 79 d1 94 3d 63 89 1c 3e
       -0.028748693 -0.5023476 0.07266516 0.15286784
0001c0 f3 fe be bd 6e 95 8f bd 50 1c 48 3d 4f ad 16 be
       -0.093259715 -0.07010923 0.048855126 -0.1471455
0001d0 da 05 20 be 41 f6 ce 3b 2e 1d 30 3c dc 4a ab 3d
       -0.15627232 0.006315977 0.0107491445 0.08363888
0001e0 b8 83 35 be bb 90 e1 3a 3a 6c 15 3e 40 40 b9 be
       -0.17726028 0.0017209271 0.14592066 -0.3618183
0001f0 2c f9 93 3c b3 4d 3e bd ad c8 0e 3d 6c dd ee 3c
       0.01806315 -0.04646082 0.034859348 0.029158317
000200 3a e5 cb be e5 f2 26 3d 1e 71 04 bd bf b5 bf 3d
       -0.39823323 0.040758986 -0.03233444 0.09360837
000210 02 7b 3f be 7a ad 42 3e fb e8 a5 bd 52 15 60 3c
       -0.18699268 0.19011489 -0.08101078 0.013676958
000220 ef 61 85 bd a1 a2 38 3d 77 13 ec 3d 80 01 17 3f
       -0.0651282 0.04507697 0.1152715 0.58986664
000230 cd bd 22 3d f2 68 93 3c b1 c4 2f bd 66 a4 82 3e
       0.03973179 0.017994378 -0.04291219 0.2551605
000240 74 77 2d be 29 46 f8 3d dc 07 2d 3d 05 f2 5d be
       -0.16940099 0.12122757 0.042243823 -0.21674354
000250 ac 12 08 3e 62 38 8a be b2 5a 1e be 5a 57 8a be
       0.13288373 -0.26996142 -0.15464285 -0.2701977
000260 f3 71 d9 3e f0 db bb bd c3 73 74 3c e4 16 14 be
       0.4246975 -0.09172809 0.014920178 -0.14461857
000270 4b b3 38 3f 3f 2f 9d 3d 04 0a 83 3e 22 47 77 3e
       0.7214858 0.07675027 0.2559358 0.24148229
000280 df ce fb 3d f9 7b 94 bd 44 ff 38 3e 53 49 e3 bd
       0.12295317 -0.072502084 0.18066126 -0.1109797
000290 81 cb 71 3c 47 f0 33 3e b2 f7 41 3e 6e 83 06 be
       0.014757992 0.17572127 0.18942145 -0.13136074
0002a0 0c 20 af 3c f2 51 64 3c 3c 97 64 be 00 ea 9e bc
       0.021377586 0.013935553 -0.22323316 -0.01939869
0002b0 f0 b2 25 3e ff f9 e0 3e 8e 84 8c 3e 89 cc e2 3d
       0.1618154 0.43940732 0.2744488 0.11074168
0002c0 c8 d9 9d 3d 57 0b bc 3d 65 7f 0d be 90 1a da 3d
       0.07707554 0.091818504 -0.13818128 0.10649598
0002d0 4a b7 c3 3d d4 58 e1 bd 30 76 0d bd 9f 81 7a bd
       0.09556444 -0.11003271 -0.03453654 -0.061158773
0002e0 68 07 34 3c 30 94 a1 bd d7 57 bb bd 9e d7 69 bd
       0.010988094 -0.07889593 -0.091476135 -0.057090394
0002f0 cc 7a a3 3e 76 90 3a 3e 87 87 1d be 65 35 d1 bc
       0.31929624 0.1821917 -0.15383731 -0.025538156
000300 2d a5 c1 bf 37 2c e9 bd f8 60 9a 3d fd f2 20 be
       -1.5128533 -0.113853864 0.075380266 -0.15717693
000310 52 4b 18 be 96 f9 ae be b0 33 2e 3e 9b 48 62 bd
       -0.14872482 -0.34174794 0.17011905 -0.055245023
000320 b3 16 40 bf db 84 89 3d 12 4f 85 3c 90 1a ea bc
       -0.75034636 0.06714793 0.016273055 -0.02857712
000330 5a d2 e4 3d 32 20 10 3e 24 63 ef bd ed b1 1e 3e
       0.11172934 0.14074782 -0.116888314 0.15497561
000340 a0 a1 c5 bd ba 95 84 bd 48 8f 6a be 8d d3 94 be
       -0.09649968 -0.064738706 -0.2290622 -0.2906765
000350 8d ee 5d bd 1a be 60 be d8 6a 5a bd 22 c0 0d 3e
       -0.054182578 -0.21947518 -0.05332455 0.13842824
000360 a0 53 98 be e4 39 f5 bc f4 95 ff 3e 99 c0 ed bd
       -0.297513 -0.029934831 0.49919093 -0.11609001
000370 3b 9c ae be 80 f9 b1 be 1f d3 30 be ee 3b e0 bc
       -0.3410357 -0.34760666 -0.17268036 -0.027372327
000380 1f 27 ee 3d 51 c8 11 3c 97 ee 88 bd eb 0a bb be
       0.116285555 0.008897857 -0.066861324 -0.36531767
000390 ee 2c 5a 3e e1 e8 b9 bd 58 4f b5 be f4 e2 4a 3d
       0.21306202 -0.09077621 -0.35412097 0.049532846
0003a0 a9 4e 22 3c 02 4c 29 3c 77 40 14 be ef 9f 0b 3e
       0.009906449 0.010333063 -0.14477716 0.13635229
0003b0 9a 00 28 3d 9f 0f 79 3e e0 b6 21 bd 1c 5d 40 be
       0.0410162 0.24322365 -0.039481044 -0.18785518
0003c0 e0 af 04 3d dc 3c 47 be 0a bf e4 3d 40 16 c8 3d
       0.03239429 -0.1945681 0.1116925 0.09769869
0003d0 6a 8f 00 3e db 8b 40 bd 52 11 06 be 91 21 00 be
       0.12554708 -0.047008377 -0.13092545 -0.12512805
0003e0 38 4d 65 3d d4 7d f8 bd e4 e9 d4 be 04 ef 93 3d
       0.055981845 -0.12133375 -0.41584694 0.07223323
0003f0 f9 43 1d be 01 43 f0 3e fb e1 d1 be 78 a7 b3 bd
       -0.15357961 0.4692612 -0.40992722 -0.087721765

a2c_network.actor_mlp.2.bias f4 [128]
000000 0c dd b7 be 14 70 d3 3e 3c be bd be 12 b6 ff be
       -0.35910833 0.41296446 -0.370592 -0.49943596
000010 96 89 d7 be c2 1e 06 bf 8f 99 3a bf 6d bc 3d bf
       -0.42097157 -0.5239068 -0.7289056 -0.7411564
000020 99 ef 8a bf 7c 3e ac be a1 85 9d be 21 eb 0a bf
       -1.0854369 -0.33641422 -0.30766013 -0.5426503
000030 09 e5 af bd 2b a8 23 3a ef 61 9a bf 76 bb ef be
       -0.08588607 0.00062430155 -1.2061137 -0.4682271
000040 5e f9 8b 3f e0 65 23 bc 7c 3a 17 3f 03 1e df be
       1.0935476 -0.009973019 0.59073615 -0.43577585
000050 f0 3f 82 3e 27 89 8f 3d f7 3d 09 be 70 02 d0 be
       0.25439405 0.070085816 -0.13402544 -0.4062686
000060 83 b2 0f be 52 9d 00 bf ce e6 d0 bb 92 6f eb bd
       -0.1403294 -0.5024005 -0.0063751703 -0.1149589
000070 01 3e 39 bf 74 72 61 3e 3b 1c 5b be 82 41 83 bf
       -0.72360235 0.22016317 -0.21397488 -1.0254366
000080 10 de d3 be d0 ee 2d bf 40 43 1d 3e 32 e2 87 be
       -0.41380358 -0.67942524 0.15357685 -0.2653976
000090 aa 2d 9b be 0f ab 68 3f f3 3a 68 be fc 16 ff be
       -0.30308276 0.90886015 -0.22678737 -0.49822223
0000a0 58 2c 1d bf d5 97 c5 be 72 31 d1 be 90 b9 0f bf
       -0.6139579 -0.385924 -0.40858036 -0.5614252
0000b0 a5 f1 15 bf cf 5f 0c bf 9b fe c6 be d8 aa 63 be
       -0.58571845 -0.5483369 -0.38866124 -0.2223314
0000c0 25 23 14 bf fb 5b 30 bf 93 1e 45 bf 85 11 ae be
       -0.57866126 -0.6889035 -0.7699978 -0.3399774
0000d0 80 48 1f bf 69 fc 36 3e d6 a7 9b bf db c7 92 bd
       -0.6222 0.17869724 -1.2160594 -0.07167026
0000e0 12 6a 86 be 3f b1 aa be df c1 a9 3d 1c b3 eb be
       -0.262528 -0.33338353 0.08288931 -0.46035087
0000f0 a4 01 21 bf 41 3c cb be fd 47 9e be c1 3e af be
       -0.6289313 -0.39694408 -0.30914298 -0.34227565
000100 0f 8a 19 bf ae ea ce bd db e4 b6 3f 7f 7d c6 be
       -0.59976286 -0.10103355 1.4288591 -0.3876762
000110 e7 bb f0 be 07 d1 3e 3f da 3e 36 bf aa 8f 90 3e
       -0.47018358 0.745377 -0.71189654 0.28234607
000120 67 51 41 bf 65 3d f5 be 35 d5 87 be a3 53 0b 3e
       -0.75514835 -0.47898403 -0.26529852 0.13606124
000130 de 56 40 bf 92 8b 08 bf 3b b0 2b bf 92 1c c0 be
       -0.7513255 -0.5333797 -0.6706578 -0.37521797
000140 14 a4 5f bf d4 b3 b3 be 5b f1 92 be 8b c2 be be
       -0.8735974 -0.35098135 -0.28699765 -0.372578
000150 27 d3 a1 be 53 bc 40 3f f4 da ca be 6c 8d 3d be
       -0.3160641 0.7528736 -0.39620173 -0.1851098
000160 ce fa 04 bd 0d d8 a8 be 40 f4 c0 3e f0 6c ad be
       -0.03246575 -0.32977334 0.37686348 -0.33872175
000170 d5 4d d3 be f2 50 d1 3e 01 26 15 bf 16 22 f6 be
       -0.4127032 0.4088207 -0.58261114 -0.4807288
000180 7b 31 05 bf d9 a8 01 be f9 6a e6 bd 06 43 37 bf
       -0.52028626 -0.12662067 -0.11250872 -0.71586645
000190 46 10 b1 be 95 62 f8 3d 88 b7 9a be 41 90 4a be
       -0.34582728 0.12128178 -0.30218148 -0.19781591
0001a0 7e 6e 39 bf 07 e5 93 be 3c a7 63 bf 67 cc 0b bf
       -0.7243422 -0.28885671 -0.88927054 -0.5460877
0001b0 a7 8f c6 bc 4f b8 27 3e 80 59 d4 be 45 11 7d bf
       -0.02423842 0.16378902 -0.41474533 -0.98854476
0001c0 10 b7 36 bf 1b d5 17 be 27 41 f1 be 1c 9d 2b 3f
       -0.7137308 -0.14827387 -0.4712002 0.67036605
0001d0 84 68 dd bd e4 88 c1 be d4 19 ac be 33 d7 4c be
       -0.108109504 -0.37799752 -0.33613455 -0.20003967
0001e0 89 89 fb be 96 b9 b7 3e 4e 9f 43 bf 51 82 a5 3e
       -0.49128368 0.35883778 -0.76414955 0.32325986
0001f0 b6 9a b3 be d2 79 d8 be b5 72 83 bf 6e b5 6b bf
       -0.35078973 -0.42280442 -1.0269381 -0.92073715

a2c_network.actor_mlp.4.weight f4 [64, 128]
000000 c1 9d 9c bd 41 8a 0f 3d 72 a4 69 bb 2d 58 1a be
       -0.07647277 0.03504396 -0.0035650996 -0.15072699
000010 ac bd 84 3e 5c d6 5e 3e 18 3b 80 3e 1d 79 6f 3e
       0.25925958 0.21761459 0.25045085 0.23386045
000020 ae a6 21 3e a3 8d 03 bd 86 9b bd 3e 54 b6 a0 be
       0.1578624 -0.032117497 0.37032717 -0.31389105
000030 15 e5 e0 be 35 68 3f be 62 31 7f 3d de 34 3c 3e
       -0.43924776 -0.18692096 0.062302954 0.18379542
000040 bf df 53 3e 3c 89 c7 be 56 c9 3a 3e c8 e1 98 bd
       0.20690821 -0.3897189 0.18240866 -0.07464939
000050 69 5b 8a be 2d 15 18 be 2a 6d 4e be 39 16 b3 be
       -0.27022865 -0.14851828 -0.2015883 -0.34977892
000060 d1 db 4c be bf ec 93 3d a5 77 41 3c 52 a0 70 bc
       -0.20005728 0.0722289 0.011808311 -0.014686661
000070 d0 04 41 3e 71 1e 1d 3d ec 81 57 be 76 c3 22 3e
       0.18849492 0.03835911 -0.21045655 0.15894875
000080 2d 6a 79 bd 76 02 fa 3c 05 8e 4a 3e 77 7f bc 3e
       -0.060892273 0.030518752 0.19780739 0.36815998
000090 12 d9 57 be 0d a7 c2 bd ca 15 30 bd 7d c7 e0 3e
       -0.210789 -0.09504519 -0.04298953 0.43902197
0000a0 45 b0 ae 3e f0 50 34 3e 52 98 07 3e 1f 22 74 bb
       0.34118858 0.17609 0.132417 -0.0037251783
0000b0 dd f2 05 3d 3a 1e 87 be 96 e6 dc 3e cc 44 4b be
       0.032702316 -0.2639025 0.43144673 -0.19850463
0000c0 ab b6 64 3e 5e e6 b2 3e 06 d5 74 be 34 37 16 be
       0.22335307 0.3494138 -0.23909387 -0.14669496
0000d0 0f 13 6d 3d db 5b a5 be 4d d8 c1 3e 46 87 7f 3e
       0.057879504 -0.32296643 0.37860337 0.24953946
0000e0 6d f8 23 be 3a 69 b2 be c6 13 83 bd 3f 9f b0 3e
       -0.16012736 -0.34845906 -0.06400256 0.34496495
0000f0 87 02 8a 3e cb 00 53 be 7e 75 1c be 3d 21 ee 3c
       0.26955053 -0.20605771 -0.15279195 0.029068584
000100 08 54 5c be 86 20 8f be f6 7d 2e bc 71 d7 d6 be
       -0.2151643 -0.279545 -0.010650149 -0.41961244
000110 5f 95 a5 bd cf 30 0c 3a ec a0 82 bd 2b 38 3b bd
       -0.08085131 0.0005347849 -0.0637835 -0.045707863
000120 7c 4f 37 3d fe cf 41 3e 73 3d 39 3e b6 e2 52 3e
       0.044753537 0.18926999 0.18089847 0.20594296
000130 c5 4c 9f bd ef 0c 8d be 67 1c 1f be 41 36 95 3e
       -0.077783145 -0.2754893 -0.15538178 0.29142955
000140 99 e4 f4 bd 2f f6 64 3e ce 75 50 be 36 3e 48 be
       -0.11957664 0.22359537 -0.20357439 -0.19554982
000150 1a 94 7f bc b4 3b 64 3d 6d 9f c6 be 11 2e 3d 3c
       -0.015599275 0.055721 -0.38793507 0.011546628
000160 e0 19 e7 3d 0e 5a 94 3c 66 d8 52 bf 56 10 ad 3d
       0.11284232 0.018109348 -0.8236145 0.084503815
000170 57 8a b2 be 34 c4 e4 3d fe 27 c9 3d dd 08 3f 3e
       -0.3487117 0.11170235 0.09822081 0.18655725
000180 54 c8 00 bf 7c 34 84 3e e0 53 73 be eb e7 c8 3d
       -0.50305676 0.25821292 -0.23762465 0.0980986
000190 9c 10 bf bc be 0a 3d 3e 37 c1 42 3e 37 4b 2d bf
       -0.02332335 0.18461129 0.19019018 -0.67692894
0001a0 88 00 a9 bd 7f 02 f4 3d 37 d9 04 3f 50 64 9f 3d
       -0.082520545 0.119145386 0.51893944 0.07782805
0001b0 2e db b5 3e e7 b5 56 be ae 30 13 3e 4e ae 5b 3e
       0.35518783 -0.20967828 0.14374039 0.2145321
0001c0 96 ce f6 3d 4e e7 ae 3e 5a a9 85 3e 67 47 5b be
       0.12051122 0.34160846 0.26105767 -0.21413957
0001d0 a8 df 02 bd 06 79 ac be 53 e1 54 3e b1 a4 fb bd
       -0.031951576 -0.33686084 0.2078908 -0.12287272
0001e0 87 3e e1 3e a1 8a 9d be bd c4 7b 3e f7 8c 87 3b
       0.43993017 -0.30769828 0.24586768 0.0041366774
0001f0 96 11 64 bd 31 d8 44 be 8d cd 63 bc eb e2 e2 3e
       -0.055680834 -0.19223095 -0.013903988 0.4431375
000200 e0 e7 06 bd 5a cd 2c 3d e5 a7 c2 b9 22 0d 81 3c
       -0.032935977 0.042188026 -0.00037127655 0.015753333
000210 03 7a 15 3d 16 f5 9a 3e fe 4b 3e 3d d6 0f c7 bc
       0.036493313 0.3026511 0.04645919 -0.024299543
000220 a2 ab 2e be 5f 10 87 bc f3 68 42 bc 9d 38 b4 ba
       -0.1705766 -0.016487299 -0.011865842 -0.0013749782
000230 4b 1a d3 bb e8 1b 94 3b 33 b7 9a bd f5 e9 92 3a
       -0.0064423434 0.0045199282 -0.07554474 0.0011208641
000240 12 88 dd 3b ec fd 06 ba 52 64 37 3e eb 5d a3 bb
       0.0067606056 -0.00051495316 0.17909363 -0.004985561
000250 df 3e 76 bc bc ac 14 3c a7 9c 9b bb ac 58 38 3c
       -0.015029638 0.009074386 -0.004748899 0.01125161
000260 96 86 5e 3d 3b d1 97 bd 38 e3 90 3c b8 04 0d 3c
       0.05432757 -0.074129544 0.017686471 0.008607082
000270 1f dd a2 bc 80 8e 58 bb 9f 84 55 bb 65 ad 64 3d
       -0.01988083 -0.003304392 -0.003258027 0.055829424
000280 c2 ad 10 3e 71 8a 28 bd bd 61 37 bb 5d ad d8 bc
       0.14128783 -0.041147653 -0.002798184 -0.026449854
000290 5b fb 8b bd db da ae bc 83 7e 45 3e ab ea 54 bc
       -0.068350516 -0.021344593 0.19286542 -0.012995402
0002a0 f4 a2 11 3c e5 c0 06 bd 49 b9 b7 3d 35 08 5e 3a
       0.008888949 -0.032898802 0.08970887 0.0008469851
0002b0 a5 55 b7 3c 19 32 c6 3b 38 f9 f7 3a 8c ee 68 3c
       0.022379706 0.0060484526 0.0018918877 0.01421703
0002c0 4d f8 68 3c 9e 8d d0 3d 74 38 66 bd f1 7c f2 3a
       0.014219356 0.10183261 -0.05620618 0.001850037
0002d0 48 f7 a9 be 17 a6 88 be f4 17 2b bd a7 43 cc bc
       -0.33196473 -0.26689216 -0.04177089 -0.024934603
0002e0 99 ee 98 bc 4f ac 27 3d f7 25 c4 bb 7b 6b 39 3c
       -0.01866846 0.04093581 -0.005985971 0.011317129
0002f0 b0 97 38 3c b6 8e a0 3c 92 f7 67 bb ba e3 7c 3e
       0.011266634 0.0195993 -0.0035395366 0.24696246
000300 6e 59 25 3b 88 0b fb bc bd a9 f0 bd 59 1f 49 3a
       0.0025230306 -0.030645147 -0.11751125 0.00076722127
000310 65 c5 8f 3b 57 3a 18 3c eb ac e8 bc 94 a3 42 bb
       0.004387545 0.009291253 -0.028402766 -0.002969955
000320 cb bc 22 3e fa 88 ab 3c 13 26 04 3f 59 62 4a ba
       0.15892331 0.020939339 0.51620597 -0.00077203434
000330 3b 28 20 3e da fe 3d bc 64 12 69 ba 11 0e 00 bd
       0.15640347 -0.011596406 -0.0008890985 -0.031263415
000340 8a 60 11 bd 85 40 04 3d b6 3d 27 be f6 2b 6a 3d
       -0.035492457 0.032288093 -0.16332135 0.05717083
000350 40 8f 3d 3b a4 08 2d 3c 4b 41 64 bc 0c 7f 81 bb
       0.0028924495 0.010561142 -0.013931583 -0.0039519127
000360 d7 bb 66 3c 10 b1 4a 3d 9c 06 99 3a f5 63 f5 3e
       0.01408287 0.049485266 0.0011674943 0.47927824
000370 84 3f 16 bd dd 8a aa 3c 54 ab b2 be af 98 26 3f
       -0.036681667 0.020818168 -0.34896338 0.65076727
000380 24 4f 6e bc 71 1c 1b be 5d ea 88 bc 1d d4 42 3c
       -0.014545236 -0.15147568 -0.016713316 0.011891392
000390 07 f3 f3 3d 93 06 38 3b 60 95 cc 3e ca 69 2f bc
       0.11911588 0.002808009 0.39957714 -0.010706374
0003a0 f3 d3 74 bd 4f 90 a2 bc cf bc 86 bd c1 a1 bd ba
       -0.059772443 -0.019844202 -0.06578981 -0.0014467762
0003b0 3c a0 83 3b 49 cc 76 bc 83 68 b8 3b f2 4c 1c be
       0.004016904 -0.015063354 0.005627693 -0.15263727
0003c0 78 1a 49 bc e1 53 ca bd 8b eb 35 3d 14 1d 0e be
       -0.012274377 -0.0987928 0.044414084 -0.1387828
0003d0 e0 23 44 bc bd a9 70 3c e3 fb 5f bd f0 3b 51 3e
       -0.011971444 0.014688906 -0.054683577 0.2043302
0003e0 5a e4 11 bd 02 97 d4 3b 38 bc 19 3d dc 60 75 39
       -0.035618164 0.006487728 0.037533015 0.00023401104
0003f0 24 6c 76 bd d6 5b 75 bb ba c0 52 3e db 76 5a bd
       -0.060161725 -0.0037438772 0.20581332 -0.053336006

a2c_network.actor_mlp.4.bias f4 [64]
000000 f6 f3 84 be 6d b3 ab 3e e5 75 64 be 73 94 2f c0
       -0.25967377 0.33535329 -0.22310598 -2.7434356
000010 ab 26 04 bf 82 4b 26 bf a5 9c 4b bf f0 7d 87 be
       -0.516215 -0.64958966 -0.79535896 -0.2646327
000020 f0 d4 aa be e2 c2 ae be 02 7f 85 be 2e 07 ae be
       -0.33365583 -0.3413306 -0.26073462 -0.33989853
000030 22 66 e3 be f7 19 81 be c5 fe e3 be ca bd c5 be
       -0.4441386 -0.25215122 -0.4453031 -0.3862136
000040 d6 99 b5 be 18 b9 0b be 3d ff 14 be 30 81 23 be
       -0.3546893 -0.13644826 -0.1455049 -0.1596725
000050 5b 9c aa be 75 a2 a5 be 94 7b d0 bd e4 ed d3 be
       -0.33322415 -0.32350507 -0.10179821 -0.41392434
000060 df b6 64 be 5b fc 87 be f4 03 18 c0 f8 be 9a be
       -0.22335385 -0.2655972 -2.3752413 -0.30223823
000070 a2 b5 ac be e6 8f 2f be fa 84 15 3f d5 40 9d be
       -0.33732325 -0.17144737 0.5840603 -0.30713525
000080 d4 82 e4 bd cf 1c 9c be bc 01 4b be f6 07 8a be
       -0.11157766 -0.3049073 -0.1982488 -0.269592
000090 a7 bc 65 be 57 30 57 bf 3c 7c df be 87 1d 2c be
       -0.22435246 -0.84058136 -0.4364947 -0.16808139
0000a0 01 fc 81 be 09 ec db be 4d 83 34 be 9b 6d 9f be
       -0.25387576 -0.42953518 -0.17628212 -0.3113831
0000b0 56 70 3c be 87 da 0e bf b5 2f d3 be d4 b5 71 be
       -0.18402228 -0.55802196 -0.41247335 -0.23604518
0000c0 f9 65 69 be e0 ab 21 be 45 c8 5b be 2c a0 d3 be
       -0.22792806 -0.15788221 -0.21463116 -0.4133314
0000d0 63 94 b6 be ae 72 d3 be 12 9c d7 be 62 0b 6c be
       -0.35660085 -0.4129843 -0.4211126 -0.23051217
0000e0 a2 ce f0 be 0c da 94 be 92 c3 12 be 54 e0 43 be
       -0.47032648 -0.29072607 -0.14332417 -0.19128543
0000f0 33 0a 4d be 4f fa 83 be 58 e7 1c be ec 77 0c bf
       -0.20023422 -0.25776908 -0.15322626 -0.54870486

a2c_network.value.weight f4 [1, 64]
000000 91 b9 f0 ba a3 7c eb 3e 39 21 a7 3a 19 f5 9d 3e
       -0.001836585 0.45993528 0.001275099 0.30851057
000010 1f 3b 5e bc 4c 0d 85 3b 47 7a d0 3d b1 36 3e 3a
       -0.0135639 0.004060423 0.101795726 0.00072560745
000020 bc 15 27 bb cd 6b dd 3b 64 dc 86 b8 f3 04 f4 b8
       -0.0025495132 0.0067572356 -6.430669e-05 -0.000116357485
000030 3c ca a5 3e 18 28 01 bc d5 8e 5b 3a ba 27 4e bb
       0.32380855 -0.007883094 0.00083754706 -0.0031456784
000040 3a b1 22 38 40 ab 76 bb fd c5 22 3b 33 d9 c4 3b
       3.8788865e-05 -0.0037638694 0.0024837248 0.0060073375
000050 f0 41 b6 3a c2 3f 3e 3b 50 54 ac 3a 63 0d 92 ba
       0.0013905149 0.0029029702 0.0013147686 -0.0011142906
000060 a0 fd 01 bc 10 33 4a 3a ae 5c 86 bf bf d7 9b bb
       -0.007934004 0.00077132974 -1.0497034 -0.0047559435
000070 84 45 2b 3b 04 9d 86 bb fb e9 25 3f 6e e6 3e bc
       0.0026133964 -0.004108073 0.6481015 -0.011651618
000080 91 5f 84 ba 1b 91 ee 3a 7a e9 ed bb ff 24 0e bb
       -0.0010099282 0.0018201204 -0.0072604986 -0.0021689532
000090 4e 8b 2f bb cb e2 2e be 9c 8a e5 3b 6e 77 61 39
       -0.0026785913 -0.17078702 0.007005049 0.00021502163
0000a0 6d 6d af ba 95 12 9e bc bb fd 4f 3a 6d f1 5d bb
       -0.0013384052 -0.01929597 0.0007934232 -0.0033865825
0000b0 fa 3a b6 bc e7 a0 49 be 17 2f e2 3a 11 4c af 3b
       -0.02224492 -0.19690286 0.0017256466 0.005349644
0000c0 cf a6 43 3b b3 ce 84 ba c1 62 86 3a 2a 87 72 b8
       0.0029854064 -0.0010132402 0.001025282 -5.7823177e-05
0000d0 28 8f bb 3a 43 f7 03 bc dd b6 25 3c 63 7a 20 39
       0.0014309632 -0.008054557 0.010114399 0.00015304382
0000e0 84 43 a3 3b c6 3c 06 3a 78 fd 7d bb a0 94 f1 39
       0.0049824137 0.000512075 -0.0038755815 0.00046077836
0000f0 ba a0 2d bb d9 de 87 bb f2 67 ab ba 06 d8 cd be
       -0.0026493506 -0.0041464386 -0.0013077243 -0.40203875

a2c_network.mu.weight f4 [8, 64]
000000 25 59 9f 3d c6 aa 79 39 8f b8 4e bd d0 2c 9e 3a
       0.07780675 0.00023810109 -0.050468978 0.0012067799
000010 8c c6 d6 bc 52 94 1d bd 33 43 b9 3d 80 1b 87 3d
       -0.026217721 -0.038471527 0.0904602 0.06597042
000020 9d a0 0c 3c f2 2b 0b bb 09 64 a3 bc a2 fc 91 bc
       0.008583215 -0.002123591 -0.019945161 -0.01782066
000030 d2 9e 8e bb d2 43 aa bc 6c 99 32 bd d2 cc 49 bd
       -0.004352429 -0.020784292 -0.043603346 -0.049267597
000040 01 4e 2a 3e e4 03 c1 3c 2c f9 e9 bd 41 08 6e 3c
       0.16631319 0.023561426 -0.11424479 0.014528335
000050 bb f5 82 bd ca 8c 9c bd c6 b6 c9 bd f7 a4 7a bc
       -0.063945256 -0.07644041 -0.098493144 -0.01529812
000060 ff 81 73 bc 1b 29 8c bd f3 2b 08 bd 43 78 26 3d
       -0.014862536 -0.06843778 -0.03324504 0.040642034
000070 5c 7d ee bc 4a 56 1a 3a 8c 37 f5 3b 2a c9 d3 bd
       -0.02911251 0.0005887492 0.0074834283 -0.103411034
000080 ff 23 02 3c 30 6f 96 bc 45 48 4c bd 8b da c4 3b
       0.007943152 -0.018363565 -0.04987361 0.0060074977
000090 98 d9 4c 3c ce 89 99 bb 08 c1 db bc 7e d3 a5 3d
       0.01250305 -0.004685617 -0.026825443 0.080969796
0000a0 82 2d 63 bb b4 04 b8 bd 48 cb d0 3d f3 4f 01 3d
       -0.0034664576 -0.08985272 0.10195023 0.031570386
0000b0 35 27 72 3d 26 fb c8 3c be d2 7a 3c c6 fe 84 3c
       0.059119422 0.02453382 0.015309034 0.016234767
0000c0 d1 69 13 3d b3 21 82 3d 99 29 48 bd c5 9b 88 3d
       0.035989586 0.06354084 -0.048867796 0.06670336
0000d0 11 ee 6f 3c 3e 88 22 bd 7a 43 a9 bd 8f 74 38 3c
       0.014644162 -0.039680712 -0.08264823 0.0112582585
0000e0 f1 e5 23 bd e5 d9 93 3d 07 ff 7e 3b 37 41 68 bd
       -0.04001421 0.072192945 0.0038909332 -0.05670282
0000f0 81 fa 2c 3d d0 74 06 3e db 7a 28 bd 76 0a 83 bc
       0.042231087 0.13130498 -0.04113279 -0.0159962
000100 a3 03 74 bc 9c 70 cd 3c 32 87 b4 bc c7 d8 5a 3d
       -0.014893445 0.02507811 -0.022037122 0.05342939
000110 8f cb 95 3d 1f f3 d1 bd f0 d7 1c 3d d8 a5 6e bd
       0.07314216 -0.1025145 0.03829187 -0.05826363
000120 04 2e 66 3b 18 95 2c 3e 41 77 ad bc 0d 51 99 3d
       0.0035122642 0.1685375 -0.021175029 0.07486162
000130 ae fc ec bb d5 44 80 bd 7f 54 18 bd 3f c4 29 3d
       -0.00723227 -0.06263129 -0.037189957 0.04144692
000140 54 24 26 bd 36 2b 32 bc 81 b2 64 bd 8b 98 be bc
       -0.04056199 -0.01087456 -0.055834297 -0.023266098
000150 d6 41 70 3d 0b 97 fd 3c c5 6d 82 bd 75 3b 4d bd
       0.058656536 0.030955812 -0.06368593 -0.05010553
000160 81 5c 03 3d 93 0d 37 3d 07 a7 bb 3e 6a 83 6e 3e
       0.03207064 0.04469068 0.3665087 0.23292318
000170 8d f5 d2 3d 9d 59 b0 bc 41 c9 b4 3c c8 7a fa 3d
       0.10300741 -0.021527106 0.022068622 0.1223045
000180 22 3e 4a bc fc 34 16 3d bb 3c 3a bd 1e 82 bd 3d
       -0.012343915 0.036671624 -0.045468073 0.092533335
000190 6f 7b 4d bc 82 b5 d8 bd fd 8c f4 bd a9 a7 39 bd
       -0.012541636 -0.10581495 -0.11940954 -0.04532591
0001a0 6f 88 71 3c 59 9d ff bb 7a db 27 bd 63 c0 33 3d
       0.014742001 -0.0078007397 -0.040980794 0.043884646
0001b0 3a 2a a7 3d 9b 66 97 3c 34 65 be 3d d9 d6 5c 3d
       0.08162351 0.018481543 0.09296647 0.053915832
0001c0 9e 03 8d 3c bf ce b7 bd ce b2 a4 3d 5a 0c 0d 3c
       0.017213639 -0.089749806 0.08041917 0.008608902
0001d0 17 6a 0b bd 73 da eb bd 3a 52 13 3c 79 bb 0d bc
       -0.034036722 -0.11516275 0.008991772 -0.008650654
0001e0 c7 f4 87 bc 00 07 ce 3d 1a 76 c7 bd 3a 89 16 bc
       -0.016596211 0.10059929 -0.09739323 -0.009187991
0001f0 85 c4 f1 bd 52 eb 1e bd f3 f0 91 bd 61 cb 41 3c
       -0.11805061 -0.038798638 -0.071260355 0.0118282745
000200 2b 28 24 bd 9e 16 ba bd b4 64 15 3e bc 25 67 be
       -0.04007737 -0.09086345 0.14589196 -0.22572988
000210 cc c2 00 3c 2d ab b7 bd b2 a7 b4 bd 44 7e 82 3d
       0.007858943 -0.08968196 -0.08821048 0.063717395
000220 f6 2a 92 3c 2a a5 df bd 3c f3 49 3e 3f 2a cd bc
       0.017842751 -0.109201744 0.19721693 -0.025044559
000230 b3 d5 c6 3c 32 57 b0 3d fe 3a a7 bd 31 ea 0e 3d
       0.024271822 0.08610381 -0.08165549 0.03489131
000240 f1 c9 1d bd 1d 61 82 bc f1 bc aa 3d db 73 bf 3d
       -0.038522664 -0.015915448 0.08336819 0.093482696
000250 52 91 ca 3d 67 52 a1 3d 5b e0 e3 bc ec 24 13 3e
       0.09890999 0.07877045 -0.027816942 0.14369553
000260 d5 80 f4 3d f2 d9 9c ba 1f b8 a1 3e 45 d9 bd bc
       0.11938635 -0.0011966808 0.31585786 -0.023174891
000270 2d 64 11 3e 93 de 58 3c 26 d2 59 3d ac 6b 03 3e
       0.1419837 0.01323666 0.05317893 0.12834042
000280 af 83 8a bd a9 19 2f bd 3a 6a ae bd eb c0 16 bc
       -0.06763398 -0.04274908 -0.08516355 -0.009201269
000290 f6 38 96 bd 85 71 43 bc 51 4e be 3d 45 b1 85 3e
       -0.07335083 -0.011928921 0.092922814 0.26111808
0002a0 45 3d b8 3b cb cc 84 bd b3 d5 7f be 8a 9d 27 bd
       0.0056225383 -0.06484374 -0.24983864 -0.040921725
0002b0 9f 0f 77 bd 78 f0 42 bd ea 62 fb ba fd 33 09 be
       -0.06031763 -0.04759261 -0.0019179259 -0.13398738
0002c0 9d 33 d7 3d 3e 5e 4f bc 29 7f af 3c a5 96 f1 bd
       0.10507891 -0.012656746 0.02142294 -0.11796311
0002d0 36 59 8d bd a1 bd 12 be 5b 2e 5f bd 33 e1 48 3e
       -0.06901781 -0.1433015 -0.054487567 0.19617157
0002e0 85 de 38 3e e1 82 5e 3c 86 0d 46 3a 91 d7 92 3c
       0.18053634 0.013581009 0.0007555116 0.017925056
0002f0 61 bc 03 bc 58 33 2d be 3e 16 97 3c a3 1a 84 3d
       -0.0080405185 -0.16914117 0.018443223 0.06450393
000300 61 e9 7d bc b3 ba 09 bd 45 ba 96 bd fd df 8e bd
       -0.015497536 -0.033625316 -0.07359747 -0.06976316
000310 f0 9c 8c 3d f8 51 17 be 1e 1a a1 bb fe 32 04 be
       0.06865871 -0.14777362 -0.0049164435 -0.12910077
000320 02 d1 82 bc b8 71 97 bd fa 6c d7 3b e9 60 1f bd
       -0.015968803 -0.07394737 0.0065742703 -0.03891078
000330 53 5c aa bb 18 34 e5 3d 45 80 64 bc 96 0e 1b 3e
       -0.005198994 0.11191577 -0.013946597 0.15142283
000340 e0 82 38 bd 6c 93 b9 3d 88 73 9e 3d 94 13 b4 3d
       -0.045046687 0.090613216 0.077368796 0.08792797
000350 bf 69 05 3d 91 db 2e 3e 23 cb 3f bd b0 b8 0a 3d
       0.03257155 0.17075945 -0.046824586 0.033867538
000360 52 aa 1f 3e 05 d8 4c 3e cc 65 b5 bd 20 78 0d be
       0.15592316 0.2000428 -0.08857307 -0.13815355
000370 e0 12 15 bb fe c7 73 39 0a e1 8b 3c fb 42 17 be
       -0.0022746846 0.00023248789 0.01707508 -0.14771645
000380 e3 a6 e5 3d f9 e6 ce bd 34 86 04 3d 98 3c 20 3d
       0.11213472 -0.10102648 0.03235455 0.039120287
000390 9e d9 0c 3d bf eb f8 bc 6e 1d 2f 3c 1b 79 ec bd
       0.034387223 -0.03038585 0.010688169 -0.115465365
0003a0 63 4d 2c 3e d9 7b 5f bd 9d e8 3a 3d da a4 84 3d
       0.16826396 -0.05456147 0.045631994 0.064767554
0003b0 3c e6 70 bd 01 c0 e0 bc 2a 0f 38 ba dc 69 91 bd
       -0.05881332 -0.027435305 -0.00070213026 -0.07100269
0003c0 d6 c9 c2 3c ec 14 1f 3e 8c ed 69 3d b1 e8 c8 3d
       0.023777883 0.15535325 0.057111308 0.09810007
0003d0 e5 92 50 be f1 3a 96 bd 9e 99 98 bd a5 b9 de 3d
       -0.20368536 -0.07335461 -0.07451175 0.10875253
0003e0 be 1a 80 bd e9 c8 1f 3d 9a 40 9b bc 28 7b b8 3b
       -0.06255101 0.039009962 -0.018951703 0.0056299157
0003f0 44 53 e3 3d 0b 42 04 3e 5e e3 06 3e 13 d4 98 bc
       0.11099866 0.12915818 0.13172671 -0.018655812

a2c_network.mu.bias f4 [8]
000000 4d 82 0a 3e d3 3e 22 be 24 ac e8 3d ec a2 32 3e
       0.13526268 -0.15844278 0.11360958 0.17444962
000010 43 f3 34 3e 8f 7a 5b 3e f1 a3 04 3e 1e de f2 bd
       0.17670922 0.21433471 0.12953164 -0.11858772

exp_avg f4 [8]
000000 74 5b a6 b9 c6 c6 26 b8 e4 d1 27 b9 52 57 81 b9
       -0.00031730125 -3.9762606e-05 -0.00016004551 -0.00024669856
000010 a2 33 4a 39 9f d9 5f b9 6b 1c e2 38 2a 01 39 b9
       0.00019283456 -0.00021348007 0.00010781813 -0.00017643409

exp_avg_sq f4 [8]
000000 38 1b 02 35 ac 95 02 35 66 13 07 35 39 7d 05 35
       4.846838e-07 4.8646575e-07 5.031965e-07 4.9728584e-07
000010 8a 81 00 35 e7 77 10 35 ab 20 19 35 b5 4a 0e 35
       4.787222e-07 5.381866e-07 5.704448e-07 5.3007835e-07
