timechamber/models/ant_battle_3agents/policy.pth (torch, 781744 bytes, 36 tensors)

value_mean_std.running_mean f8 [1]
0.8966886680929378
00000000: 1ae5 046f acb1 ec3f

value_mean_std.running_var f8 [1]
18.705964650231415
00000000: 42e0 6c19 bab4 3240

value_mean_std.count f8 []
41008758785.0
00000000: 0000 0200 a018 2342

running_mean_std.running_mean f8 [86]
-0.04764277239273218 -0.02324831343631842 0.4568976646056927 -0.0011593497598763893 -0.004252660570428624 0.0231460149817872 0.5851679432862023 -0.01305901990672271
-0.0035241292252848042 -0.02026366631585085 0.0008687708090183048 -0.0065737954015366775 -0.055362645332137174 -0.4636119216268244 -0.8992244527816037 -0.1230952033582126
0.981255183330561 -0.3255837682496118 0.9741683002014708 -0.7928127276364102 -0.9173516191262445 -0.0019506130657344222 0.05392048443506989 0.006836047899094448
-0.030273483410640314 0.007760453427335802 -0.01656612496891305 0.0052822218867560845 0.04414733330513982 1.051439515780067 2.2288261013983597 0.010978387284272141
-0.026360085356984374 0.03524536888918779 0.44888705132875667 -0.0012772220156925052 -0.0028696583555626724 -0.009353902147809696 0.5488043609042916 -0.021137070740627498
-0.05836996063335267 -0.4143616362823385 -0.9225406406173388 -0.12611334660602588 0.9830709228682536 -0.22713691919287557 0.9718706579264915 -0.6573979423101012
-0.9397971588956933 0.00030013503476563914 0.046373677721070414 0.004687615471645833 -0.024936994788774147 0.004490960226491281 -0.013878529022217749 0.003059251996147104
0.03333574206260837 0.6370600034623425 0.019302492673107494 -0.04987641922842936 0.0024077225835094597 0.4518629349633179 -0.0024181699088008587 -0.0034327645022041494
0.0196225007735957 0.5673570648883792 0.0023177416612387763 -0.02554793474855642 -0.39774092105817543 -0.923345176673533 -0.07861440406380935 0.9822652331943379
-0.185751933151516 0.9717823485894287 -0.6771927018708785 -0.9381742717217731 -0.0006215165086266519 0.04685141349322921 0.002555689051261147 -0.02532684995377121
0.0038734246857013146 -0.014960419409848264 0.0030991372655295836 0.03630056270743083 0.7862951901837463 0.016024379168100216
00000000: c096 a22a a264 a8bf 08a7 95e7 67ce 97bf
00000010: 1e6a c6b3 cf3d dd3f 862d 6953 aafe 52bf
00000020: 8dbb 22e1 3c6b 71bf 309c 84c5 96b3 973f
00000030: 489e 621f b2b9 e23f 2566 56fb afbe 8abf
00000040: 3d8c 9f78 a2de 6cbf 7d9a 7ea0 ffbf 94bf
00000050: 9da9 311b c777 4c3f 76c2 29c4 1fed 7abf
00000060: 3d3f 3e1e 7e58 acbf 3811 5b56 d1ab ddbf
00000070: 49bc 0e5c 72c6 ecbf 5bce b7d0 2a83 bfbf
00000080: 85ed 2d45 7166 ef3f c764 2f4d 5dd6 d4bf
00000090: 8b49 c5ff 622c ef3f 47a1 21cc b85e e9bf
000000a0: 488e 62c8 f15a edbf 4246 c4d4 76f5 5fbf
000000b0: 2c59 773a 779b ab3f 9e68 91a2 1d00 7c3f
000000c0: a721 bd14 0300 9fbf 9bb7 c2da 6cc9 7f3f
000000d0: 780a dad3 b5f6 90bf fbb2 0fa4 cfa2 753f
000000e0: 999b 80b1 7a9a a63f 9cf5 df3d b2d2 f03f
000000f0: 2cd1 6fc7 a2d4 0140 8148 ca32 d67b 863f
00000100: 53b0 1c62 23fe 9abf 3ad5 6d55 ae0b a23f
00000110: 3583 43c1 90ba dc3f a458 60b2 0eed 54bf
00000120: 5df1 3519 1c82 67bf eac3 847e 2328 83bf
00000130: 3e8e bf29 ce8f e13f 74c6 41ce f4a4 95bf
00000140: b365 fadf aae2 adbf 232e 23ab e684 dabf
00000150: e3d5 15f3 7385 edbf 0389 a16d 7b24 c0bf
00000160: 19c4 eb26 5175 ef3f 67e4 d293 d212 cdbf
00000170: a48f 777e 9019 ef3f 1dbf d568 6709 e5bf
00000180: 3e95 ca7d d112 eebf d0b5 a028 6eab 333f
00000190: 861b 6a6a 4abe a73f 58e0 5932 5233 733f
000001a0: d02f 5064 1589 99bf da81 cef4 1c65 723f
000001b0: 3cd7 22a2 586c 8cbf 16f1 c168 b70f 693f
000001c0: 41c2 e4e3 6111 a13f a9bb 0ea9 cb62 e43f
000001d0: 2992 0c5b 08c4 933f 23fa daea 6689 a9bf
000001e0: 76e1 2038 5cb9 633f 254a fc83 52eb dc3f
000001f0: 3044 9515 45cf 63bf 8ce2 b268 071f 6cbf
00000200: b772 5abc eb17 943f 5634 db00 ca27 e23f
00000210: 0ed0 5614 a8fc 623f 1ccd e6e0 3c29 9abf
00000220: 3373 0e56 9674 d9bf e86d 172f 0b8c edbf
00000230: d6d6 72d6 1220 b4bf eb28 927f b76e ef3f
00000240: 26fb 0627 b8c6 c7bf 81b1 c04b d718 ef3f
00000250: 7802 7407 90ab e5bf d8cb df0c 8605 eebf
00000260: cf7c 0b8a a85d 44bf 0318 7391 e8fc a73f
00000270: 1eed 9a1c abef 643f 1f70 0c21 48ef 99bf
00000280: 3ec8 270b 29bb 6f3f 7d45 cc80 91a3 8ebf
00000290: 1ac2 70a6 5c63 693f 9a43 4fc3 fc95 a23f
000002a0: daeb da87 5429 e93f ebde dce1 b168 903f

running_mean_std.running_var f8 [86]
0.9275140886634862 0.9044746776193187 0.023518857791232348 0.01181440552982115 0.011512430402793164 0.46610122553956745 0.1676150645736564 0.6639401141475885
0.670836636114931 0.47703249934727804 1.18388887825684 1.1897170874296403 4.756224371798284 0.5138145799247024 0.04248651485152067 0.7013701209898792
0.009388178617451904 0.5148413233673836 0.01849343937785155 0.22599330870848805 0.04496537387621201 2.0130827985660065 0.5139423896015699 1.8708705491858613
0.16287226223675433 1.707861037307768 0.06180030222283365 1.346183635013694 0.30960963245812606 0.29540981334612076 0.2566111433822847 0.010858192911678428
1.552046692714926 1.6319905808419488 0.027210496735887022 0.01669104869456605 0.01643986156529315 0.4751630891088643 0.1904435348322122 3.118524586724155
3.194857969490272 0.42823339393727927 0.034159040734695015 0.5891410512372218 0.008856888782777366 0.4690656504147383 0.019952545043560133 0.30167932182106455
0.03441205984576292 1.6712662671818328 0.4183106793446861 1.50941479394989 0.14164043764863699 1.5784377569970385 0.07689526490321666 1.0766086711928453
0.23270649286181083 0.6494636649674624 0.018930482869368204 1.342503415537701 1.3705384299141765 0.026927455755391256 0.015126737698019135 0.014958792647711975
0.4634641822224818 0.18417404498612466 2.875070493942399 2.82889613898124 0.4542636187617007 0.03320189673113768 0.6194117698148677 0.009427181686086309
0.4820827315216689 0.01989538912461653 0.2986701528602984 0.03451633907493365 1.8587707817334815 0.4231959395715546 1.6323657030388794 0.14081357810517836
1.7583560888274408 0.07935750868761118 1.197998286324154 0.2570863506682207 0.6118458109819283 0.0157680787071679
00000000: 0372 ac06 32ae ed3f 7aec 0de1 74f1 ec3f
00000010: 6ce1 35d4 5315 983f 3b65 faaa 2632 883f
00000020: 08aa 9e40 d493 873f 7e59 143c 9ad4 dd3f
00000030: 8594 5412 6974 c53f 5886 9856 ff3e e53f
00000040: 2150 a264 7e77 e53f 47d8 f451 b387 de3f
00000050: 4b61 e376 35f1 f23f f80a e0c8 1409 f33f
00000060: 423f 85ae 5f06 1340 a381 1f46 2b71 e03f
00000070: 71d9 9ddf cac0 a53f 0761 81c0 9f71 e63f
00000080: 0736 0c01 1c3a 833f b4c0 cf82 9479 e03f
00000090: c612 46b5 f1ef 923f e246 0247 59ed cc3f
000000a0: 6e61 8094 b305 a73f 67d9 7f27 cb1a 0040
000000b0: 19bd 6b4f 3772 e03f 68d8 fcf4 15ef fd3f
000000c0: 24bf dd8f ffd8 c43f 8d97 5518 6653 fb3f
000000d0: 3527 dc09 4aa4 af3f 1cb5 ecd9 f789 f53f
000000e0: 73ca 7beb a4d0 d33f a54c cf8f fee7 d23f
000000f0: d96d 2725 516c d03f f733 98fb d13c 863f
00000100: 8735 b1e9 2ed5 f83f 188a c127 a21c fa3f
00000110: b9ac 5a86 11dd 9b3f 9ecd 1d51 7517 913f
00000120: 3145 186f 9cd5 903f 3c4a ff71 1269 de3f
00000130: f863 eb28 7460 c83f 6d04 be04 bdf2 0840
00000140: 009b f2b1 118f 0940 3701 8109 2d68 db3f
00000150: 42f1 a235 4b7d a13f 0d70 7955 3eda e23f
00000160: 09a9 547d 8f23 823f 4b54 0def 2b05 de3f
00000170: 9d79 bca1 706e 943f a975 46c9 b64e d33f
00000180: a347 401f 759e a13f 7643 87b2 81bd fa3f
00000190: 0d97 d627 9ac5 da3f 4fd0 8120 9026 f83f
000001a0: 9cfa be1b 4621 c23f 982e 11f3 4741 f93f
000001b0: a200 fa77 68af b33f 07d0 9503 ca39 f13f
000001c0: 5244 348c 53c9 cd3f b937 1f06 68c8 e43f
000001d0: 8d23 4933 8362 933f 280b 88dc e47a f53f
000001e0: fe47 66b4 b9ed f53f e5e7 55f7 de92 9b3f
000001f0: 1b51 aa5d c4fa 8e3f 1532 ad29 b7a2 8e3f
00000200: 13d4 60ac 65a9 dd3f 6064 fedd 0393 c73f
00000210: d86a 89f5 2400 0740 0aa4 854c 94a1 0640
00000220: 0106 96b6 a712 dd3f 2b35 40c9 d6ff a03f
00000230: 4398 c3a1 38d2 e33f 2212 48e8 8e4e 833f
00000240: cc85 7687 71da de3f 8193 86f6 745f 943f
00000250: 24e2 b46a 691d d33f 1c4c 0227 20ac a13f
00000260: f9e3 646e 86bd fd3f e1a0 106c a415 db3f
00000270: e39f da7f 2b1e fa3f 9cb1 65e8 2d06 c23f
00000280: 01c8 83fe 3922 fc3f 0a5d 8110 c650 b43f
00000290: 11d2 4640 002b f33f 3e8d 174f 1a74 d03f
000002a0: 5695 8baa 3d94 e33f 80df 78d9 8125 903f

running_mean_std.count f8 []
20504379393.0
00000000: 0000 0400 a018 1342

a2c_network.sigma f4 [8]
-2.9447365 -3.4718175 -2.0970454 -3.0804539 -3.121809 -1.755082 -2.189335 -3.0120423
00000000: 9076 3cc0 4232 5ec0 fe35 06c0 2826 45c0
00000010: b8cb 47c0 87a6 e0bf 111e 0cc0 4dc5 40c0

a2c_network.actor_mlp.0.weight f4 [256, 86]
-0.05592124 -0.15093376 0.099663325 -0.017231949 0.34680775 -0.013541612 0.11190888 0.046851445
0.0734103 0.0136328135 0.22668284 -0.028343558 -0.020976232 0.10752299 -0.0075709727 -0.047456928
0.16884288 -0.04499991 0.10316262 -0.021718621 -0.10097983 -0.10324279 -0.16564679 0.036745034
-0.110602446 -0.12850304 -0.1366713 0.04400767 -0.07349356 0.13612299 -0.20526627 0.27092522
-0.18582606 -0.3483248 0.066796385 -0.9748883 -0.06819461 0.1318999 0.10086956 -0.031886883
0.095657505 -0.014440332 0.05586657 -0.031804807 0.08888564 0.10704477 0.1387603 -0.0603662
-0.20904194 0.05859851 0.07028739 -0.13588229 0.015292294 -0.16176027 -0.021595476 -0.17431822
0.04759814 -0.53321123 0.19925351 -0.023444714 -0.019922825 0.20911078 0.64966893 -0.22143626
-0.079995 -0.3494978 -0.027960556 -0.06657607 0.046822578 -0.04424447 0.15761486 0.069359995
-0.21149285 0.017728964 0.033370584 -0.16279134 -0.017332843 -0.007125182 0.041464847 0.106906064
-0.01273318 -0.23244406 0.020341614 -0.09890061 -0.36938965 0.1382506 -0.10811822 0.06489462
-0.143129 -0.30691057 0.108915575 0.015437464 -0.20848471 0.17351216 -0.1351283 0.22795354
-0.052542783 0.076703615 0.2435816 0.19134155 0.09048452 -0.22138537 -0.09522297 -0.07486179
-2.03421e-05 0.14258353 0.1492351 0.050931804 0.212106 -0.0090141725 0.051220488 0.13150172
0.010539386 0.13256197 0.05611866 0.028599698 0.7897158 0.42579392 -0.02755507 -0.44397697
-0.32042238 -1.1703267 -0.60168934 0.5323747 0.21919739 -0.04805911 0.21082284 -0.05465797
0.09415066 -0.19313075 0.0050198007 0.3212065 0.15666349 0.12004792 -0.10707019 0.05702068
-0.14291833 0.25061092 0.021609418 0.040492844 -0.02179935 -0.05426266 -0.08557024 -0.8647711
-0.5393103 0.16422749 0.060721245 -0.08972918 -0.12764928 -0.027459443 -0.303276 -0.014102998
-0.24211605 -0.046987846 0.021591749 0.17613076 0.10939941 -0.006813381 -0.055297367 -0.084448434
-0.20579039 -0.06887238 0.16364825 0.029634869 0.024155824 -0.21598515 -0.25764316 0.08527637
0.004727567 0.03214961 0.31013757 -0.17392328 0.6023878 -0.1408584 0.33910203 -0.22383115
0.13841671 -0.12202087 0.3763267 0.4732664 0.06895034 0.43485865 0.041915968 0.018563505
0.049922343 0.7358875 0.49832708 -0.48733512 0.25067666 -0.49994147 -0.11040844 0.028182773
-0.03884097 -0.27987748 -0.25848186 -0.51669616 0.060254708 -0.09564858 -0.03506551 -0.12494832
-0.1031618 0.5626922 0.79665256 0.6164025 0.11769969 -0.3617173 -0.00058764097 -0.05761312
-0.06767839 -0.2054142 -0.026227301 0.24369414 0.07489193 0.4898773 0.029583523 -0.33664837
-0.04419599 -0.16734682 0.11700634 0.25789982 0.100509726 0.107180394 -0.06093356 0.44104066
-0.022297028 -0.07468417 -0.17626595 -0.49506068 -0.04702264 0.19262105 0.2358855 0.032869488
0.13399626 -0.09563163 -0.32489398 0.091427974 0.12048788 -0.120050974 0.27174312 -0.3044715
-0.08364476 0.10849538 0.19399287 0.06515581 0.062766194 -0.09943473 0.04518903 0.4311729
-0.068857715 0.038952854 -0.17982593 0.10509428 0.19772819 0.13197197 -0.23212318 -0.10976165
00000000: ac0d 65bd 618e 1abe 491c cc3d 042a 8dbc
00000010: c990 b13e a3dd 5dbc 7c30 e53d 4de7 3f3d
00000020: 2458 963d 2a5c 5f3c 8c1f 683e c030 e8bc
00000030: 59d6 abbc 0335 dc3d ec15 f8bb 3262 42bd
00000040: 26e5 2c3e d351 38bd ec46 d33d 40eb b1bc
00000050: 83ce cebd f570 d3bd 509f 29be f681 163d
00000060: 8983 e2bd 4d96 03be 90f3 0bbe 6341 343d
00000070: cb83 96bd d363 0b3e 5231 52be b6b6 8a3e
00000080: 3049 3ebe a157 b2be 8bcc 883d 4892 79bf
00000090: 9ea9 8bbd c410 073e b394 ce3d d29b 02bd
000000a0: 15e8 c33d 2497 6cbc 58d4 643d c245 02bd
000000b0: ad09 b63d 4a3a db3d 2e17 0e3e 8c42 77bd
000000c0: 170f 56be fe04 703d d6f2 8f3d ba24 0bbe
000000d0: 888c 7a3c 7ca4 25be ffe8 b0bc 7a80 32be
000000e0: 44f6 423d 8880 08bf 1d09 4c3e 210f c0bc
000000f0: 3135 a3bc 2321 563e b450 263f 30c0 62be
00000100: 6bd4 a3bd 60f1 b2be 890d e5bc 0959 88bd
00000110: 08c9 3f3d b039 35bd ca65 213e 9d0c 8e3d
00000120: 9591 58be 553c 913c 98af 083d c6b2 26be
00000130: 9bfd 8dbc 5c7a e9bb 0bd7 293d 91f1 da3d
00000140: d49e 50bc d105 6ebe 75a3 a63c 678c cabd
00000150: a420 bdbe 9191 0d3e 166d ddbd 78e7 843d
00000160: 6990 12be 6223 9dbe 210f df3d 6bed 7c3c
00000170: 047d 55be 2cad 313e 135f 0abe a76c 693e
00000180: 1a37 57bd c916 9d3d 746d 793e 0aef 433e
00000190: f34f b93d d9b2 62be 4304 c3bd 2351 99bd
000001a0: 54a4 aab7 6b01 123e 16d1 183e de9d 503d
000001b0: 5132 593e 2eb0 13bc 93cc 513d 63a8 063e
000001c0: 64ad 2c3c 53be 073e aedc 653d ea49 ea3c
000001d0: d12a 4a3f a901 da3e 2cbb e1bc f350 e3be
000001e0: 670e a4be 44cd 95bf 5008 1abf b549 083f
000001f0: 4875 603e a1d9 44bd f1e1 573e 09e1 5fbd
00000200: 10d2 c03d 11c4 45be 247d a43b 2e75 a43e
00000210: 656c 203e afdb f53d 9e47 dbbd 848e 693d
00000220: 2f59 12be 1350 803e 3c06 b13c d3db 253d
00000230: 8d94 b2bc 8642 5ebd 733f afbd a461 5dbf
00000240: 3d10 0abf 402b 283e d7b6 783d efc3 b7bd
00000250: 7eb6 02be a0f2 e0bc fe46 9bbe 4310 67bc
00000260: 45ed 77be 5476 40bd 2ee1 b03c 9f5b 343e
00000270: cc0c e03d c842 dfbb 7e7f 62bd 4df3 acbd
00000280: b7ba 52be f60c 8dbd 6893 273e d3c4 f23c
00000290: 6fe2 c53c 362b 5dbe cee9 83be 61a5 ae3d
000002a0: b5e9 9a3b 4faf 033d 5aca 9e3e f218 32be
000002b0: 1636 1a3f 2f3d 10be c89e ad3e fe33 65be
000002c0: 1cbd 0d3e 14e6 f9bd e5ad c03e f94f f23e
000002d0: d635 8d3d cba5 de3e 14b0 2b3d 7e12 983c
000002e0: 5f7b 4c3d 2063 3c3f ba24 ff3e fd83 f9be
000002f0: b158 803e 54f8 ffbe d21d e2bd 8fdf e63c
00000300: b517 1fbd 1a4c 8fbe bc57 84be 3346 04bf
00000310: a4cd 763d 67e3 c3bd daa0 0fbd e8e4 ffbd
00000320: 7e46 d3bd 990c 103f 6cf1 4b3f 8ecc 1d3f
00000330: 890c f13d 0333 b9be eb0b 1aba bcfb 6bbd
00000340: f89a 8abd 1a58 52be a3da d6bc f58a 793e
00000350: f160 993d 33d1 fa3e 2559 f23c 2d5d acbe
00000360: db06 35bd f75c 2bbe 05a1 ef3d 720b 843e
00000370: 0bd8 cd3d 6581 db3d 7895 79bd 15d0 e13e
00000380: 42a8 b6bc 04f4 98bd 107f 34be 9878 fdbe
00000390: d09a 40bd 743e 453e f88b 713e 28a2 063d
000003a0: 5136 093e 84da c3bd 8158 a6be 973e bb3d
000003b0: 5ac2 f63d 49dd f5bd ea21 8b3e b0e3 9bbe
000003c0: f24d abbd d332 de3d 11a6 463e 6970 853d
000003d0: 908b 803d 70a4 cbbd 2218 393d b2c2 dc3e
000003e0: 4605 8dbd 078d 1f3d 4a24 38be ab3b d73d
000003f0: 4279 4a3e a923 073e b3b1 6dbe b7ca e0bd

a2c_network.actor_mlp.0.bias f4 [256]
-0.6203091 -0.50488466 0.09365867 -0.48381734 -1.6903291 0.9697206 -1.1259544 -0.923482
1.0443707 1.7638181 -0.2539854 0.088836975 -1.3531742 0.13237113 -0.13143398 -0.7845396
-1.6931015 2.0497916 -0.07082728 0.4720878 0.044870876 -1.5306057 0.1342499 0.27402812
1.5577805 -1.2563277 -0.19360353 -0.7739148 0.41239426 -1.3276554 0.057516184 -1.1770281
-0.98206496 0.3578264 -0.7307366 1.9069647 0.17282227 1.1713848 0.49325985 -0.05064792
0.026494935 1.5936832 0.8793485 -1.6334238 1.0420538 -0.4940397 1.5344726 -0.74676
0.83330435 0.6605476 -0.97990817 -0.37733492 -0.023089264 0.57492197 -0.70266205 -0.028789967
-0.72729915 -0.7825449 0.4416527 0.5356979 -1.701067 -0.7199777 -1.2907572 0.5914976
-0.716755 0.06732169 0.26075014 0.4611003 -1.2003528 0.49869472 -1.067796 0.4640176
1.1752563 -1.0391976 -0.617973 0.3640219 0.28895453 -0.04756507 -1.3189039 1.0601488
0.38244948 0.5628109 1.8975552 -1.3631754 -1.1118587 0.32125595 1.5932348 -1.6139863
0.016404688 0.74461216 0.033131246 0.12571342 -2.0086102 0.9534055 0.7762095 -0.44034156
-0.5585943 -1.868874 -0.40226802 -0.43813834 -0.27013645 -0.07300183 -0.48975042 -1.0112134
-0.7126526 0.120610625 -0.3368301 0.9389259 0.8315402 -0.77188087 0.38866827 1.496004
-1.0404602 -1.714039 -2.1445928 -1.0422435 1.0507115 -1.1561424 -0.554526 -0.4825091
0.17610338 -0.12275809 -1.0604326 -1.5165219 0.47787654 0.9101957 0.43273216 -0.7811923
-0.044512592 -0.6978586 -0.097192764 -1.8209655 -1.0803088 -0.81362945 -1.3490865 0.22967984
-0.7108757 0.8038425 -0.8894713 -1.6471328 -1.9717131 -0.85228336 -0.676334 1.416523
0.36154887 0.7716482 -1.2955196 -0.7622532 -1.6936532 0.2900576 -0.7746847 -1.1039878
-1.0062643 -0.84728736 -0.14923507 0.015586672 -1.5314355 0.6414276 0.93411726 0.3570044
1.0879441 -0.9312741 -0.031380974 0.99196976 -0.9735727 -0.011875349 -0.61252 0.37030056
0.8941826 -1.133454 0.44087017 -0.56783974 -1.2088077 0.6064696 -0.22337998 -1.7338978
-0.0041404404 -1.3591852 0.6660432 2.3004425 -0.8485478 -0.7838311 -1.2068905 -0.727365
0.6929397 -1.3254234 0.038039714 -1.1300479 -0.7859282 -0.15877004 -1.0856018 0.09452538
-1.3911023 -1.2665486 1.2049838 0.86473453 -2.527664 -0.5099555 0.18163005 -0.4455347
-1.7650483 0.4647561 -0.20995294 0.5959914 -0.89320326 -0.94613343 0.73492575 -0.09139432
-0.58403176 0.33412358 -0.48088512 1.2369008 -1.3607819 -1.4333328 -0.9291235 -1.4636568
1.1097897 0.2422966 -0.63408345 -1.3388304 0.8139448 -3.4157805 -1.733576 -0.53457636
-0.7931949 -1.0637506 -1.5648515 -0.7918482 -1.0277021 -1.2354851 0.73959845 0.43714803
0.02145053 -1.1933805 -0.7378421 -0.6960027 -1.7971414 0.6893135 -1.1645303 1.051786
-0.39631662 -0.6421977 -0.9013631 1.7156917 0.18458734 -0.13670689 0.008733041 -0.013529419
0.19483465 -0.064824745 -1.5490397 -1.7576058 0.13311878 -1.5143628 1.0189775 0.7034886
00000000: 94cc 1ebf 1f40 01bf 1ed0 bf3d e8b6 f7be
00000010: b45c d8bf 9c3f 783f 461f 90bf 5169 6cbf
00000020: f0ad 853f cbc4 e13f 600a 82be 29f0 b53d
00000030: d034 adbf 4c8c 073e a196 06be 96d7 48bf
00000040: 8db7 d8bf c92f 0340 e50d 91bd 7eb5 f13e
00000050: 86ca 373d e3ea c3bf ce78 093e 6a4d 8c3e
00000060: 5a65 c73f 59cf a0bf 0140 46be 481f 46bf
00000070: 5725 d33e 9df0 a9bf 1796 6b3d dba8 96bf
00000080: 9c68 7bbf 0635 b73e 8e11 3bbf 6b17 f43f
00000090: 52f8 303e f0ef 953f 8e8c fc3e 3274 4fbd
000000a0: e80b d93c d0fd cb3f fc1c 613f 0814 d1bf
000000b0: 0562 853f c6f2 fcbe 9969 c43f aa2b 3fbf
000000c0: 6f53 553f a619 293f 43db 7abf 0b32 c1be
000000d0: b225 bdbc 162e 133f a9e1 33bf f0d8 ebbc
000000e0: 4730 3abf dd54 48bf 4d20 e23e 7f23 093f
000000f0: 90bc d9bf 7550 38bf 8837 a5bf 636c 173f
00000100: 417d 37bf f4df 893d 0b81 853e 5715 ec3e
00000110: 29a5 99bf ea54 ff3e 8aad 88bf b793 ed3e
00000120: cc6e 963f 6d04 85bf 7b33 1ebf 1461 ba3e
00000130: d9f1 933e 97d3 42bd d8d1 a8bf f5b2 873f
00000140: 6bd0 c33e 6014 103f 17e3 f23f 887c aebf
00000150: 6351 8ebf a97b a43e 1eef cb3f 1a97 cebf
00000160: 2063 863c e79e 3e3f a1b4 073d 05bb 003e
00000170: 128d 00c0 6212 743f aab5 463f 7374 e1be
00000180: 0900 0fbf 4337 efbf 13f6 cdbe ab53 e0be
00000190: 534f 8abe fc81 95bd 91c0 fabe 716f 81bf
000001a0: 6770 36bf b402 f73d ff74 acbe 735d 703f
000001b0: d2df 543f fc99 45bf 87ff c63e 0f7d bf3f
000001c0: cd2d 85bf a165 dbbf 0241 09c0 3c68 85bf
000001d0: b77d 863f 79fc 93bf 6af5 0dbf 6f0b f7be
000001e0: 7254 343e 9868 fbbd 41bc 87bf 641d c2bf
000001f0: 3cac f43e 9602 693f 128f dd3e 38fc 47bf
00000200: d652 36bd dca6 32bf 000d c7bd 6615 e9bf
00000210: 8f47 8abf 054a 50bf deae acbf 3131 6b3e
00000220: f3fb 35bf 9fc8 4d3f 64b4 63bf 3fd5 d2bf
00000230: 1861 fcbf 3e2f 5abf 3a24 2dbf a050 b53f
00000240: ef1c b93e bd8a 453f 96d3 a5bf 0723 43bf
00000250: a1c9 d8bf 6e82 943e bd51 46bf 794f 8dbf
00000260: 45cd 80bf d3e7 58bf 14d1 18be 3e5f 7f3c
00000270: 1406 c4bf 9934 243f 4f22 6f3f 48c9 b63e
00000280: c141 8b3f fb67 6ebf 5689 00bd bbf1 7d3f
00000290: 0f3c 79bf d390 42bc 1cce 1cbf 0998 bd3e
000002a0: 27e9 643f 0515 91bf bcb9 e13e f25d 11bf
000002b0: 36ba 9abf 9741 1b3f b9bd 64be 5df0 ddbf
000002c0: 88ac 87bb c8f9 adbf cf81 2a3f 733a 1340
000002d0: 6e3a 59bf 28a9 48bf 637b 9abf 9834 3abf
000002e0: 7f64 313f 79a7 a9bf 88cf 1b3d 69a5 90bf
000002f0: 9732 49bf 9d94 22be 00f5 8abf 8696 c13d
00000300: a40f b2bf 441e a2bf e93c 9a3f 3e5f 5d3f
00000310: 3fc5 21c0 728c 02bf 3afd 393e 201d e4be
00000320: 1aed e1bf 83f4 ed3e e7fd 56be e492 183f
00000330: f8a8 64bf cd35 72bf 1824 3c3f f22c bbbd
00000340: 1b83 15bf 3f12 ab3e 9336 f6be c452 9e3f
00000350: 1a2e aebf 7377 b7bf 0adb 6dbf 1b59 bbbf
00000360: 970d 8e3f 9a1c 783e 4b53 22bf cb5e abbf
00000370: b05e 503f 269c 5ac0 d2e5 ddbf ffd9 08bf
00000380: d20e 4bbf fb28 88bf 0e4d c8bf 90b6 4abf
00000390: be8b 83bf 6024 9ebf 5356 3d3f ded1 df3e
000003a0: 06b9 af3c b1c0 98bf 38e3 3cbf 3c2d 32bf
000003b0: bb08 e6bf d976 303f 540f 95bf eca0 863f
000003c0: 03ea cabe 1267 24bf bbbf 66bf c99b db3f
000003d0: 7704 3d3e e4fc 0bbe 0715 0f3c 7faa 5dbc
000003e0: bc82 473e d6c2 84bd ef46 c6bf 3af9 e0bf
000003f0: 4a50 083e a4d6 c1bf db6d 823f d417 343f

a2c_network.actor_mlp.2.weight f4 [128, 256]
-0.015575494 0.34148362 -0.072641455 -0.43054938 0.12160225 0.12852457 -0.3116959 -0.20866136
0.15850121 0.34323198 0.20853356 -0.14059491 -0.03080532 -0.03854654 -0.047538735 -0.15876047
0.104851164 -0.18900666 -0.28013793 -0.27726096 0.077429965 0.11429292 -0.041578542 0.55939454
-0.22649015 -0.32018435 0.10456251 -0.6049961 -0.34176943 0.20828879 0.13999432 -0.11366348
0.2176051 0.10073903 0.08401509 -0.32789192 -0.14246471 -0.45557705 0.42059433 -0.24448845
0.21635613 -0.052767273 -0.13516144 -0.112546846 -0.10889386 -0.68633485 0.10273144 0.13948996
0.11028624 0.07853687 -0.0538159 0.15303327 -0.004338831 0.19326265 -0.28333592 0.009126236
0.10874224 0.19770785 -0.057340898 -0.13897753 0.21024334 0.00870654 -0.39290145 -0.082618974
0.42468768 -0.26230842 -0.3382835 -0.22247033 -0.6808494 -0.045855433 -0.034860197 -0.038562346
0.028676417 0.40784952 -0.26228663 -0.22357301 -0.091508046 -0.44320112 -0.17364372 0.016605927
-0.252334 0.13893163 0.03752288 -0.24912247 0.47404686 -0.17037189 -0.15706566 -0.05555364
-0.43161106 -0.21616216 0.03053439 -0.23541132 -0.44177157 0.030902473 0.004642875 0.3176687
-0.30582267 -0.13378435 0.40835828 0.21330391 0.35363233 -0.36458513 -0.09514261 0.08321551
-0.10879373 0.27875784 -0.34020564 -0.15875354 -0.03904698 -0.13667916 0.25233072 -0.02005577
0.14146858 -0.05877398 -0.17478253 -0.013557448 -0.16369747 -0.36136568 -0.47555545 0.28288952
-0.09869909 -0.2638297 -0.5245011 0.325802 -0.015559561 -0.3136603 -0.16413598 0.2851342
-0.351034 -0.3353854 -0.46667084 -0.3196883 -0.2200215 -0.17816497 0.29001424 0.0016478578
-0.11299417 -0.30173683 0.26405227 0.08128091 -0.16527118 -0.43279263 -0.75177884 -0.017593779
-0.030843653 -0.3032448 -0.43447393 -0.39718637 -0.11668441 -0.2859549 -0.9808223 -0.16261095
-0.07183657 0.04415619 0.24103616 -0.2241565 0.078818984 -0.067828305 -0.17887543 -0.07208946
-0.116401196 -0.07788259 0.28191334 -0.6451374 0.013408146 -0.07099792 0.1703264 -0.24749349
-0.15135945 -0.35575017 -0.6821897 -0.448443 -0.29069063 -0.13211942 0.2195871 0.020139571
-0.09120005 -0.14248039 -0.103922516 -0.39557078 -0.382656 0.19229633 -0.06929163 0.22802459
-0.087206684 0.05534314 -0.33012664 -0.22708377 0.34012645 0.44293162 -0.12457851 -0.1566186
-0.24683662 -0.51586294 -0.039574344 -0.03515127 -0.30941412 -0.39459518 -0.0065614046 -0.33235696
0.11862539 -0.2902243 -0.4835321 0.15786844 0.24610975 -0.16224052 -0.36156097 0.08339404
-0.0108127715 0.2237485 -0.21743369 0.027576556 0.09070052 -0.39772284 0.12876855 -0.49801567
0.20273769 -0.36546922 -0.09784477 0.10047158 -0.32332873 -0.34700495 -0.19535051 -0.030297006
-0.51992965 0.23530248 0.18654491 0.43033287 0.11225236 -0.49308476 -0.24632622 -0.467123
-0.104049206 0.07355336 -0.05185839 0.46475312 0.15226522 -0.06675909 0.25120088 -0.67365795
-0.031140663 -0.40176213 -0.35311678 0.1938929 0.032537267 0.2134785 -0.3683706 0.07711293
0.053489137 0.024957452 -0.13921124 -0.2805015 -0.060421683 0.037211113 0.23077098 0.05284016
00000000: 5b30 7fbc f1d6 ae3e 0bc5 94bd f870 dcbe
00000010: 9a0a f93d f29b 033e 9b96 9fbe 53ab 55be
00000020: 244e 223e 1abc af3e d289 553e 1df8 0fbe
00000030: 705b fcbc fae2 1dbd fab7 42bd 1b92 22be
00000040: 35bc d63d f68a 41be 3d6e 8fbe 26f5 8dbe
00000050: 9a93 9e3d 6812 ea3d 434e 2abd 7b34 0f3f
00000060: 09ed 67be 34ef a3be df24 d63d 06e1 1abf
00000070: 67fc aebe a849 553e ac5a 0f3e 66c8 e8bd
00000080: dfd3 5e3e 4450 ce3d 1a10 ac3d 73e1 a7be
00000090: 45e2 11be 6541 e9be 2458 d73e 2e5b 7abe
000000a0: 768c 5d3e 7f22 58bd c367 0abe f67e e6bd
000000b0: be03 dfbd a4b3 2fbf dc64 d23d 75d6 0e3e
000000c0: c1dd e13d f0d7 a03d 106e 5cbd c1b4 1c3e
000000d0: c12c 8ebb a5e6 453e 6811 91be 3586 153c
000000e0: 40b4 de3d ed73 4a3e 4ade 6abd 2050 0ebe
000000f0: 084a 573e e0a5 0e3c 612a c9be 2334 a9bd
00000100: aa70 d93e 4a4d 86be 7f33 adbe 43cf 63be
00000110: 254c 2ebf e8d2 3bbd 91c9 0ebd 8df3 1dbd
00000120: ceea ea3c a7d1 d03e 6f4a 86be 53f0 64be
00000130: 9268 bbbd 42eb e2be a9cf 31be 2709 883c
00000140: ec31 81be 1844 0e3e 97b1 193d f619 7fbe
00000150: 45b6 f23e f875 2ebe d2d5 20be 378c 63bd
00000160: 20fc dcbe 9d59 5dbe 4223 fa3c aa0f 71be
00000170: e22f e2be 2f27 fd3c 4223 983b 79a5 a23e
00000180: ca94 9cbe c4fe 08be 5614 d13e 576c 5a3e
00000190: 4c0f b53e e7aa babe 21da c2bd e56c aa3d
000001a0: 3fcf debd 59b9 8e3e 6f2f aebe 4a90 22be
000001b0: baef 1fbd 9ff5 0bbe 7e31 813e 004c a4bc
000001c0: 24dd 103e fcbc 70bd 31fa 32be 0f20 5ebc
000001d0: 4fa0 27be ec04 b9be 017c f3be e5d6 903e
000001e0: c022 cabd b014 87be b445 06bf 85cf a63e
000001f0: 87ed 7ebc 1598 a0be 4313 28be 1cfd 913e
00000200: baba b3be a3b7 abbe 7bef eebe 2fae a3be
00000210: 514d 61be e170 36be bf7c 943e effc d73a
00000220: 7d69 e7bd 407d 9abe dc31 873e 9b76 a63d
00000230: d93c 29be ff96 ddbe 9474 40bf d420 90bc
00000240: d4ab fcbc e742 9bbe 5e73 debe 035c cbbe
00000250: 3cf8 eebd ae68 92be 2c17 7bbf 7c83 26be
00000260: 0d1f 93bd 1fdd 343d 2fd2 763e 4889 65be
00000270: d96b a13d 91e9 8abd 1f2b 37be a4a3 93bd
00000280: c063 eebd e880 9fbd f256 903e ba27 25bf
00000290: d7ad 5b3c 5c67 91bd 0b6a 2e3e ef6e 7dbe
000002a0: f9fd 1abe e324 b6be fca3 2ebf 529a e5be
000002b0: 67d5 94be 504a 07be 71db 603e befb a43c
000002c0: 18c7 babd 61e6 11be 54d5 d4bd 4188 cabe
000002d0: 7deb c3be 54e9 443e c5e8 8dbd 477f 693e
000002e0: 6b99 b2bd 7daf 623d 5c06 a9be a688 68be
000002f0: 0e25 ae3e efc7 e23e 0523 ffbd a060 20be
00000300: bdc2 7cbe 980f 04bf b518 22bd c7fa 0fbd
00000310: 876b 9ebe 6108 cabe 0d01 d7bb b12a aabe
00000320: def1 f23d 4898 94be 8591 f7be 44a8 213e
00000330: 3204 7c3e 6122 26be 851e b9be 7fca aa3d
00000340: 0d28 31bc 541e 653e f0a6 5ebe 3be8 e13c
00000350: 32c1 b93d 54a2 cbbe e7db 033e e9fb febe
00000360: 789a 4f3e c81e bbbe d762 c8bd 0bc4 cd3d
00000370: 588b a5be a2aa b1be f709 48be 6d31 f8bc
00000380: 1c1a 05bf 22f3 703e a105 3f3e 9754 dc3e
00000390: 91e4 e53d 9b75 fcbe f13c 7cbe bf2a efbe
000003a0: c017 d5bd 25a3 963d 7769 54bd 1ff4 ed3e
000003b0: 6aeb 1b3e fdb8 88bd 679d 803e d974 2cbf
000003c0: b41a ffbc c4b3 cdbe b9cb b4be dc8b 463e
000003d0: cc45 053d 1c9a 5a3e 129b bcbe 62ed 9d3d
000003e0: 6d17 5b3d 9273 cc3c 648d 0ebe e59d 8fbe
000003f0: ba7c 77bd ae6a 183d 3a4f 6c3e ec6e 583d

a2c_network.actor_mlp.2.bias f4 [128]
-0.17152041 -0.1276186 -0.3405282 -0.23928125 -0.53845054 -0.2677133 -0.14390102 0.7752663
-0.19513257 -0.35282534 -0.15917122 -0.3447534 -0.32726067 -0.30621633 -0.20213653 -0.22273761
-0.22605693 -0.24268812 -0.12497652 0.00803427 -0.253974 -0.25169876 -0.22387032 -0.07417163
-0.1424589 -0.17192103 -0.20279767 -0.14650792 -1.577203 -0.043707214 -0.35422897 -0.3584154
-0.06825299 -0.40547127 -0.6050731 -0.107052855 0.18759179 -0.13695548 -0.41464183 -0.0775109
0.13161707 -0.16899239 -0.17515206 -0.047658853 -0.2618377 0.015001887 -0.2093044 -0.22179039
-0.32645288 -0.30151334 -0.61218935 -0.13545947 -0.32318252 -0.36047617 -0.25897926 1.2189479
-0.26180547 -0.21833287 -0.18344815 -0.22173005 -0.257579 -0.2421699 -0.18190959 -0.2275745
-0.11387379 -0.042060196 -0.04077513 -0.21755166 -0.25631198 -0.36715218 -0.22944455 -0.4944032
-0.3511611 -0.28982806 -0.12260879 -0.108296685 -0.17499715 0.014517529 -0.08335393 -0.42597497
-0.2780797 -0.26207855 -2.8895323 -0.22337855 -0.452967 0.7578472 -0.33421662 -0.2887785
-0.30950373 -0.3173894 -0.08857771 -0.24433173 0.046895817 -0.20919484 -0.25315437 -0.23973815
-0.26725063 -0.34561306 -0.18371752 -0.37902707 -0.29998788 -0.06016958 0.13319732 -0.0828594
0.016955309 -0.14297834 -0.31641367 -0.0040818406 -0.23984858 -0.34594956 -0.23944221 -0.050001692
-0.36628777 -0.002000404 -0.21404986 0.10729783 -0.004335629 0.028410258 -0.2650056 -0.16292706
-0.19366243 -0.27210057 -0.2162774 0.31473947 -0.074593954 -0.36444014 0.5386471 -0.30487382
00000000: 0ca3 2fbe 73ae 02be b659 aebe 2506 75be
00000010: e5d7 09bf b811 89be ca5a 13be da77 463f
00000020: d5d0 47be 86a5 b4be c8fd 22be 8583 b0be
00000030: b68e a7be 63c8 9cbe e1fc 4ebe 5415 64be
00000040: 787b 67be 3c83 78be b1f3 ffbd 2ca2 033c
00000050: e108 82be a9de 80be 433e 65be 4ce7 97bd
00000060: bfe0 11be 110c 30be 31aa 4fbe 2c06 16be
00000070: cae1 c9bf 5606 33bd 805d b5be 3982 b7be
00000080: 39c8 8bbd ee99 cfbe 12e6 1abf 873e dbbd
00000090: 1018 403e 0f3e 0cbe ef4b d4be 09be 9ebd
000000a0: a0c6 063e 570c 2dbe 105b 33be ee35 43bd
000000b0: 970f 86be 7aca 753c e553 56be 051d 63be
000000c0: d524 a7be f55f 9abe 71b8 1cbf e3b5 0abe
000000d0: 2e78 a5be 5590 b8be ee98 84be 7c06 9c3f
000000e0: 5e0b 86be a792 5fbe d5d9 3bbe 340d 63be
000000f0: 65e1 83be 63fb 77be 8246 3abe 4a09 69be
00000100: a936 e9bd 5047 2cbd d303 27bd ddc5 5ebe
00000110: 533b 83be 5ffb bbbe 83f3 6abe 6b22 fdbe
00000120: 63cb b3be 5864 94be 511a fbbd a7ca ddbd
00000130: 7432 33be eeda 6d3c 77b5 aabd 6419 dabe
00000140: 7660 8ebe 292f 86be 19ee 38c0 59bd 64be
00000150: 4aeb e7be 4602 423f 711e abbe c7da 93be
00000160: 4677 9ebe dd80 a2be 3b68 b5bd 1932 7abe
00000170: d415 403d 2c37 56be 739d 81be eb7d 75be
00000180: 13d5 88be 32f4 b0be 7220 3cbe d60f c2be
00000190: 0398 99be 6174 76bd e164 083e 30b2 a9bd
000001a0: dce5 8a3c ea68 12be f900 a2be f6c0 85bb
000001b0: de9a 75be 4d20 b1be 5730 75be 93ce 4cbd
000001c0: 128a bbbe 3619 03bb e32f 5bbe f7be db3d
000001d0: e411 8ebb a1bc e83c d0ae 87be 5ad6 26be
000001e0: 724f 46be c450 8bbe d377 5dbe 8825 a13e
000001f0: b7c4 98bd e697 babe c7e4 093f 6c18 9cbe

a2c_network.actor_mlp.4.weight f4 [64, 128]
-0.24502058 0.1841576 0.19134067 0.04211519 0.15949367 -0.278986 0.03527998 -0.35044235
-0.30601183 -0.04950731 -0.59990877 0.16958402 0.21453087 -0.04648931 0.1932113 0.13494724
0.15705056 0.07321919 -0.1327148 -0.05426033 -0.1397309 0.2698183 0.1133022 -0.052973345
-0.097795285 0.21755655 -0.1570952 0.048241917 -0.0721118 -0.043705735 0.04039559 0.11603457
-0.2660564 -0.06547979 -0.13338462 -0.030836308 -0.14375502 -0.069159605 0.11625837 -0.34661376
-0.2550447 -0.042095434 0.2041916 -0.27307466 0.26750323 -0.48225027 -0.011475925 -0.09522972
-0.025673402 0.011640325 0.10926311 -0.67855376 -0.14702262 -0.36847958 -0.06735631 -0.256433
0.000755018 -0.10402182 0.09754993 -0.21560407 -0.05211954 0.43254313 0.32356158 0.046880968
0.0048803673 -0.1972251 0.18570727 -0.39685956 0.09005747 -0.35500193 -0.12327116 0.1099269
-0.51678765 0.20479968 -0.011802709 -0.09223424 0.11754315 -0.12861137 0.26451632 -0.03235103
-0.13412286 0.48328483 0.4806245 0.31164286 0.06281158 -0.16572891 -0.029730698 0.0088312775
-0.23702608 -0.20336927 -0.027855298 0.048871595 -0.08187561 -0.15860705 0.0117012905 0.111872464
0.20774955 -0.4945204 0.16327596 0.14404723 0.30336303 -0.32627547 -0.21232791 -0.35209116
0.08784109 -0.09620357 -0.16733666 -0.3476847 -0.0319068 0.33571556 0.047908425 0.009714905
0.29870978 0.26800734 -0.42144617 -0.1954906 -0.3900433 -0.31030256 -0.31796992 0.21883798
-0.34405884 -0.22504184 -0.066545986 0.06321115 -0.007134583 0.34186447 -0.06461582 0.020645542
-0.61889607 -0.12685744 0.13076067 0.19405337 -0.3991235 0.38959196 0.20063908 -0.22167927
-0.25123358 -0.009407544 -0.2756294 -0.27305853 0.31652904 0.36296737 0.14655401 -0.17716254
-0.13953817 0.1633423 -0.3314105 -0.017465936 0.100715004 0.11603426 0.118826956 -0.010123345
-0.072067805 -0.0033122802 -0.20294978 -0.2281217 -0.27700353 -0.32856598 -0.12454749 0.4962917
0.22132511 -0.13273382 -0.29743207 -0.009029691 -0.16276403 -0.31376255 -0.001549113 -0.0057046562
-0.026149785 -0.124148965 -0.07973708 -0.13807371 0.0834251 -0.20284726 -0.077653795 -0.17446218
-0.029768603 0.2015731 0.0037186174 0.010099393 -0.17320894 -0.2918289 -0.45575008 -0.17726488
0.025452022 0.13399614 -0.07317701 0.18146387 -0.1341442 -0.11045542 0.024572827 0.119185686
-0.34775993 0.27070522 -0.11091741 -0.25462732 -0.08067115 -0.0024685636 0.047057126 -0.17636338
-0.42831168 -0.0445186 0.018320965 -0.20617446 0.40850174 -0.12760429 -0.044913158 0.15419176
-0.10185202 -0.0902884 0.20732342 -0.1611231 0.13179822 0.0010756067 -0.26397237 -0.22499476
-0.30858687 -0.1955994 -0.060555264 -0.048808087 -0.22235776 0.046652667 -0.40673205 -0.11950516
0.3606022 -0.075947694 0.14959072 -0.049132682 0.12108436 0.028631251 0.098793834 -0.10582719
-0.14756112 -0.15692174 0.17939371 0.013187279 -0.70034504 -0.11855207 -0.103610575 -0.0020747313
0.054843977 -0.2164676 -0.29411694 -0.09107576 -0.3163391 0.41169238 -0.370247 0.028468711
-0.12163419 0.23479775 -0.18199754 0.2437991 0.24418159 -0.14708872 0.0062519275 -0.065441735
00000000: ade6 7abe cf93 3c3e cfee 433e fa80 2c3d
00000010: 4f52 233e 41d7 8ebe be81 103d 2e6d b3be
00000020: 95ad 9cbe 2dc8 4abd 9f93 19bf 6fa7 2d3e
00000030: fbad 5b3e 936b 3ebd 2fd9 453e 9c2f 0a3e
00000040: ddd1 203e f1f3 953d 63e6 07be 1440 5ebd
00000050: 9e15 0fbe a025 8a3e fc0a e83d 94fa 58bd
00000060: e548 c8bd 25c7 5e3e 90dd 20be 5199 453d
00000070: 5aaf 93bd c904 33bd d975 253d 88a3 ed3d
00000080: 8b38 88be 451a 86bd fa95 08be 6d9c fcbc
00000090: 8434 13be 8da3 8dbd de18 ee3d 5c77 b1be
000000a0: 3895 82be 436c 2cbd 9a17 513e 71d0 8bbe
000000b0: 2ff6 883e 82e9 f6be 8505 3cbc cd07 c3bd
000000c0: 0751 d2bc 10b7 3e3c 56c5 df3d b3b5 2dbf
000000d0: 198d 16be 5ba9 bcbe 1bf2 89bd 304b 83be
000000e0: 66ec 453a 6409 d5bd 42c8 c73d 50c7 5cbe
000000f0: 4c7b 55bd 4b76 dd3e dda9 a53e 4206 403d
00000100: 7deb 9f3b 60f5 49be 0c2a 3e3e 2d31 cbbe
00000110: 0d70 b83d d0c2 b5be 9775 fcbd 5b21 e13d
00000120: 324c 04bf 02b7 513e 2660 41bc 4ee5 bcbd
00000130: 77ba f03d b3b2 03be af6e 873e 8382 04bd
00000140: 8157 09be 1c71 f73e 6a14 f63e a78f 9f3e
00000150: 5ca3 803d d7b4 29be cb8d f3bc 10b1 103c
00000160: f7b6 72be 0940 50be cb30 e4bc 952d 483d
00000170: 66ae a7bd e369 22be c5b6 3f3c 641d e53d
00000180: 4cbc 543e c731 fdbe d031 273e 1e81 133e
00000190: 6652 9b3e 940d a7be 7d6c 59be 4b45 b4be
000001a0: 08e6 b33d 6106 c5bd 4d5a 2bbe bb03 b2be
000001b0: b4b0 02bd e9e2 ab3e a03b 443d 442b 1f3c
000001c0: 7df0 983e 4238 893e cbc7 d7be b02e 48be
000001d0: c1b3 c7be fadf 9ebe f4cc a2be 1017 603e
000001e0: 7b28 b0be 5e71 66be 4349 88bd d974 813d
000001f0: 38c9 e9bb dc08 af3e 4d55 84bd d720 a93c
00000200: f96f 1ebf ebe6 01be 20e6 053e edb5 463e
00000210: ea59 ccbe 9978 c73e 5574 4d3e e4ff 62be
00000220: b0a1 80be 1922 1abc 4c1f 8dbe 54ce 8bbe
00000230: 1810 a23e dcd6 b93e 4112 163e 196a 35be
00000240: 18e3 0ebe 3443 273e a3ae a9be b914 8fbc
00000250: ab43 ce3d 5fa3 ed3d 8c5b f33d 63dc 25bc
00000260: 4998 93bd d712 59bb 11d2 4fbe bc98 69be
00000270: 68d3 8dbe cd39 a8be c112 ffbd f219 fe3e
00000280: 0da3 623e 60eb 07be 0449 98be 45f1 13bc
00000290: 9dab 26be 7ca5 a0be 9b0b cbba 20ee babb
000002a0: 1338 d6bc d041 febd 324d a3bd 3263 0dbe
000002b0: c7da aa3d 31b7 4fbe f408 9fbd 37a6 32be
000002c0: 49dd f3bc 2e69 4e3e 0cb4 733b ed77 253c
000002d0: af5d 31be 996a 95be 1358 e9be ed84 35be
000002e0: c280 d03c 4936 093e d4dd 95bd aad1 393e
000002f0: 195d 09be 7436 e2bd f44c c93c a017 f43d
00000300: 970d b2be e099 8a3e ab28 e3bd 835e 82be
00000310: ea36 a5bd a0c7 21bb f9be 403d 9a98 34be
00000320: ab4b dbbe 2359 36bd d915 963c 661f 53be
00000330: 2427 d13e b3aa 02be dcf6 37bd 72e4 1d3e
00000340: cb97 d0bd 20e9 b8bd 974c 543e 74fd 24be
00000350: 1df6 063e 5ffb 8c3a 6327 87be 0765 66be
00000360: 19ff 9dbe 364b 48be cc08 78bd fdea 47bd
00000370: c1b1 63be de16 3f3d 2f3f d0be 1fbf f4bd
00000380: daa0 b83e 778a 9bbd 4f2e 193e 5a3f 49bd
00000390: 14fb f73d 168c ea3c 6c54 ca3d edbb d8bd
000003a0: 431a 17be 18b0 20be fcb2 373e 750f 583c
000003b0: d049 33bf 6dcb f2bd c831 d4bd 37f8 07bb
000003c0: 14a4 603d afa9 5dbe 7f96 96be ee85 babd
000003d0: 33f7 a1be 58c9 d23e 0491 bdbe 3737 e93c
000003e0: 591b f9bd d26e 703e 905d 3abe 79a6 793e
000003f0: bd0a 7a3e 6d9e 16be f8dc cc3b 5106 86bd

a2c_network.actor_mlp.4.bias f4 [64]
-0.34767124 -0.3900706 -0.26316333 -0.17208678 -0.14909747 -0.31371093 -0.32527432 -0.26324525
-0.20373328 -0.124764584 -0.09954732 -0.11953719 -0.13959195 -0.11203822 -0.16404743 -1.6532218
-0.2690477 -0.22034597 -0.19041933 -0.14728762 -0.3411012 -0.2376008 -0.15929241 -0.06479288
-0.03832513 -0.25936574 -0.35855266 -0.16255988 -0.047817953 -0.18672623 -0.30592746 -0.22720917
-0.18323205 -0.2876631 -2.5145767 -0.18649636 -0.115630604 -0.27676105 -0.28050765 -0.12163315
-0.27485958 -0.56938505 -0.24336603 -0.17639422 -0.12709309 -0.38800544 0.10582414 -0.2696498
-0.15496999 -0.3555957 -0.09942983 0.17986901 0.28737244 -0.2303287 -0.3220731 -0.20164238
-0.21009839 -0.23214489 -0.2560521 -0.50322825 -0.041577943 -0.2614684 0.08834169 -0.2933218
00000000: f701 b2be 55b7 c7be 58bd 86be 8437 30be
00000010: 02ad 18be b89e a0be 5b8a a6be 15c8 86be
00000020: 759f 50be 9384 ffbd 77df cbbd eacf f4bd
00000030: 31f1 0ebe 4b74 e5bd 0dfc 27be c69c d3bf
00000040: 9fc0 89be 60a2 61be 49fd 42be 91d2 16be
00000050: d1a4 aebe a04d 73be 8d1d 23be 21b2 84bd
00000060: d0fa 1cbd 96cb 84be 3794 b7be 1976 26be
00000070: c2dc 43bd 2935 3fbe 86a2 9cbe 85a9 68be
00000080: 2fa1 3bbe 9448 93be d3ee 20c0 e7f8 3ebe
00000090: bdcf ecbd a0b3 8dbe b39e 8fbe cd1a f9bd
000000a0: 65ba 8cbe 38c3 11bf f234 79be b0a0 34be
000000b0: b124 02be a6a8 c6be 54ba d83d 8a0f 8abe
000000c0: 74b0 1ebe a410 b6be dea1 cbbd 952f 383e
000000d0: 7b22 933e 49db 6bbe c4e6 a4be 577b 4ebe
000000e0: 0824 57be 64b7 6dbe 4319 83be 91d3 00bf
000000f0: a24d 2abd 30df 85be 7dec b43d 462e 96be

a2c_network.value.weight f4 [1, 64]
0.00071721163 0.0011566344 -0.0017806971 -0.00586812 -0.002703681 -0.00042616663 -0.0062531163 -0.006192068
-0.003871052 0.0028540192 0.000119745324 -0.00525976 0.3834267 0.0003093488 0.0010258192 -1.1107134
-0.0002452535 -0.0021277864 -0.0013797714 0.00057095435 0.0003295009 0.0006645243 -0.00066218135 -0.0040236833
-0.0012508665 -0.0034038206 -0.004505238 0.17129247 -0.0006991679 0.0009726415 -0.00069313095 0.010273931
0.00016077577 -0.00011752375 0.9606443 -0.0006577754 -0.010211264 0.006366918 -0.0012447054 -0.00034933691
0.00034636538 -0.05382393 -0.0012800416 -0.0010568436 -0.0009756484 -0.00073508447 -0.0021152643 0.0017848469
-0.0035431718 0.014031997 0.00042328436 1.7476552 0.006452811 0.0009870691 0.0007180817 0.00039841532
-0.0011926279 -0.00179074 0.00096035714 -0.020168964 -0.0053422893 0.00286591 0.026181422 -0.0006909557
00000000: 4203 3c3a 369a 973a 4866 e9ba 5c49 c0bb
00000010: 3d30 31bb 1e6f dfb9 f1e6 ccbb d5e6 cabb
00000020: 7ab1 7dbb 7f0a 3b3b c81f fb38 115a acbb
00000030: 8150 c43e 1830 a239 c874 863a db2b 8ebf
00000040: 5e95 80b9 5572 0bbb 72d9 b4ba 19ac 153a
00000050: ddc0 ac39 7933 2e3a 3d96 2dba 1ad9 83bb
00000060: 1df4 a3ba a212 5fbb ada0 93bb 4b67 2f3e
00000070: 5d48 37ba def8 7e3a 3bb3 35ba fd53 283c
00000080: eb95 2839 1577 f6b8 c9ec 753f 8f6e 2cba
00000090: 254d 27bc 94a1 d03b 6225 a3ba 3527 b7b9
000000a0: 6098 b539 7b76 5cbd 12c7 a7ba c985 8aba
000000b0: a8c2 7fba afb2 40ba 3fa0 0abb 86f1 e93a
000000c0: 8f34 68bb 76e6 653c 44ec dd39 2ab3 df3f
000000d0: 1a72 d33b 8b60 813a a63d 3c3a 66e2 d039
000000e0: f451 9cba 43b7 eaba 7ac0 7b3a 6239 a5bc
000000f0: 5f0e afbb fed1 3b3b 6c7a d63c 4121 35ba

a2c_network.mu.weight f4 [8, 64]
-0.0020860783 0.1128669 -0.017202806 -0.027952671 -0.10564958 -0.07255412 0.018545559 -0.23443396
-0.06784525 -0.1291808 -0.037537612 -0.03716672 0.018564982 0.12932737 0.058772936 0.0051501044
0.026092624 0.018848795 -0.06764102 -0.02810981 0.099362135 0.09527227 0.013626772 -0.064962275
-0.046692647 0.006238174 0.12136351 0.00040440215 0.15144233 -0.104174696 0.028438356 -0.046243683
-0.004515552 -0.026809106 0.024999283 -0.033063084 0.07875757 0.29309696 -0.058743495 -0.16280736
-0.016409319 -0.0506648 0.06579019 -0.018849228 0.11181446 0.0075449212 -0.007564503 -0.024799913
-0.07066806 0.001258661 0.032002866 0.0009230429 -0.07787953 0.004633922 0.017037803 0.2544969
0.21802637 0.011803686 0.058556356 -0.12543894 -0.013455138 0.08568476 0.027514156 0.008404077
-0.028254483 -0.053902306 -0.034911145 0.022852426 0.10275528 0.054994296 -0.0916703 -0.14935231
-0.027664555 -0.041305225 -0.076235004 0.004109363 0.009833729 -0.06091034 -0.03803054 -0.033084247
-0.06890787 -0.010727842 0.009202341 0.022971539 -0.0238466 -0.09225338 -0.017537683 0.047518503
0.03687592 -0.100226566 0.06231265 -0.034734532 0.040850926 -0.027855093 -0.014233842 0.07246644
-0.14664406 -0.048878115 -0.006037658 -0.0070791496 -0.027127618 -0.04037689 0.06773552 3.519324e-05
-0.066639006 0.024335764 -0.036412574 0.040959317 0.11864459 0.030804582 -0.02692751 0.10318183
0.14854893 0.04571264 -0.023248222 -0.010308826 -0.09315682 -0.18834591 -0.048340708 0.13535714
-0.03218437 0.14853467 0.005466925 -0.06257706 0.07450855 -0.11031093 -0.03036945 0.08887858
-0.17187214 -0.021935197 -0.05143279 -0.018113507 -0.059831206 0.13106516 -0.03514832 0.039343093
0.010790504 0.080908194 -0.022425711 0.0269582 -0.010015112 0.44832376 0.04366694 -0.010546962
-0.056633767 0.03582405 -0.22105391 -0.020095397 -0.10765197 0.026331734 0.04821022 -0.03934414
-0.012164112 -0.033394523 0.09420884 -0.10145265 -0.047986966 0.15802906 0.2179901 0.11994292
0.057660848 0.08732868 0.033961866 0.004141101 -0.13503994 0.08956794 0.061116975 -0.06667181
0.17206989 -0.019091725 -0.0034213264 0.05970073 -0.012908609 -0.012971378 -0.007212123 -0.09194392
0.032804094 0.10007285 0.1775486 -0.010747712 0.0044630645 -0.021342145 -0.016038286 -0.22807176
0.096175976 -0.058826078 -0.015478673 0.27365446 0.025788767 -0.048808303 0.025404537 -0.18395479
-0.13944915 -0.041913632 0.095425494 -0.011348784 -0.14224693 0.009377173 0.13336265 -0.08102616
0.034176003 0.025181776 0.0073399083 -0.02554242 -0.004056564 0.05354843 -0.07002205 0.013264542
0.07232511 0.1252477 0.02308185 0.02077782 0.028855395 0.09852777 -0.052241083 0.008434473
0.014160604 0.0814675 0.061109066 0.018502869 0.026933243 -0.01115594 -0.030661417 0.18544768
-0.06524633 0.041836407 -0.015389598 0.014732095 -0.1661993 0.057422694 0.052884337 -0.036308125
-0.16460659 -0.052425046 -0.19830236 0.047050055 -0.08009655 -0.03473577 0.057016455 0.032039173
0.1262412 -0.1319049 0.029280426 -0.0051025897 -0.007076366 0.008376186 -0.14233078 0.015601584
-0.006406912 -0.10461742 0.11124088 0.052239608 0.08551622 0.04224141 0.029469952 -0.00015098079
00000000: 96b6 08bb c326 e73d e6ec 8cbc 00fd e4bc
00000010: cf5e d8bd 4197 94bd dbec 973c 750f 70be
00000020: 73f2 8abd f947 04be 0ac1 19bd 213c 18bd
00000030: 9715 983c 656e 043e e4bb 703d 35c2 a83b
00000040: 33c0 d53c ca68 9a3c 6087 8abd 8b46 e6bc
00000050: 607e cb3d 1c1e c33d d342 5f3c f10a 85bd
00000060: ca40 3fbd 9969 cc3b 6f8d f83d f005 d439
00000070: b313 1b3e 8b59 d5bd 8ef7 e83c 046a 3dbd
00000080: 32f7 93bb c59e dbbc 4ccb cc3c 286d 07bd
00000090: a64b a13d ce10 963e 059d 70bd f9b6 26be
000000a0: d66c 86bc e585 4fbd 02bd 863d b269 9abc
000000b0: fbfe e43d 633b f73b a6df f7bb 3029 cbbc
000000c0: 6aba 90bd a8f9 a43a 7015 033d 5cf8 713a
000000d0: 4e7f 9fbd 28d8 973b dd92 8b3c 6b4d 823e
000000e0: 4e42 5f3e 3f64 413c cad8 6f3d 1173 00be
000000f0: f072 5cbc 7e7b af3d 5e65 e13c 41b1 093c
00000100: f275 e7bc aac8 5cbd fdfe 0ebd 0335 bb3c
00000110: 5c71 d23d b341 613d a3bd bbbd d0ef 18be
00000120: c7a0 e2bc ab2f 29bd 1921 9cbd d6a7 863b
00000130: a61d 213c 1f7d 79bd e9c5 1bbd 5983 07bd
00000140: 921f 8dbd d5c3 2fbc 6ac5 163c cf2e bc3c
00000150: f259 c3bc 57ef bcbd 30ab 8fbc c3a2 423d
00000160: 340b 173d 9643 cdbd 8d3b 7f3d cc45 0ebd
00000170: 4d53 273d 5d30 e4bc 0f35 69bc 4969 943d
00000180: dc29 16be 6b34 48bd 8cd7 c5bb 36f8 e7bb
00000190: bd3a debc 3d62 25bd ecb8 8a3d 749c 1338
000001a0: 087a 88bd cc5b c73c 5a25 15bd f5c4 273d
000001b0: effb f23d e459 fc3c 1597 dcbc ff50 d33d
000001c0: 361d 183e 2d3d 3b3d 0e73 bebc 5ae6 28bc
000001d0: 01c9 bebd c0dd 40be e800 46bd 109b 0a3e
000001e0: c2d3 03bd 7919 183e e423 b33b 6728 80bd
000001f0: f097 983d b2ea e1bd 5ac9 f8bc f905 b63d
00000200: 40ff 2fbe 71b1 b3bc 30ab 52bd c762 94bc
00000210: 9111 75bd f235 063e aff7 0fbd 3926 213d
00000220: a7ca 303c 32b3 a53d 20b6 b7bc 71d7 dc3c
00000230: 6d16 24bc b18a e53e 1bdc 323d 2acd 2cbc
00000240: cff8 67bd 3dbc 123d f55b 62be 1a9f a4bc
00000250: a378 dcbd a6b5 d73c 1478 453d 5227 21bd
00000260: fc4b 47bc b2c8 08bd 90f0 c03d 68c6 cfbd
00000270: fb8d 44bd 5fd2 213e cc38 5f3e a2a4 f53d
00000280: c82d 6c3d 61d9 b23d 991b 0b3d 13b2 873b
00000290: e947 0abe 656f b73d cb55 7a3d 3b8b 88bd
000002a0: 1733 303e 4066 9cbc 5538 60bb c188 743d
000002b0: a17e 53bc e785 54bc ac53 ecbb 184d bcbd
000002c0: 965d 063d fff2 cc3d 4dcf 353e 2c17 30bc
000002d0: e63e 923b b9d5 aebc b962 83bc a58b 69be
000002e0: e9f7 c43d 9df3 70bd 439a 7dbc 701c 8c3e
000002f0: f742 d33c 37eb 47bd 2d1d d03c a55e 3cbe
00000300: c2cb 0ebe a1ad 2bbd 716e c33d 40f0 39bc
00000310: 2ea9 11be b7a2 193c 3890 083e 0bf1 a5bd
00000320: 23fc 0b3d 034a ce3c 9d83 f03b 563e d1bc
00000330: edec 84bb 9955 5b3d b867 8fbd 8653 593c
00000340: 301f 943d ef40 003e 2616 bd3c 3f36 aa3c
00000350: 2662 ec3c edc8 c93d bffa 55bd be30 0a3c
00000360: e101 683c 6fd8 a63d 804d 7a3d 5493 973c
00000370: 1ba3 dc3c 67c7 36bc a72d fbbc ffe5 3d3e
00000380: de9f 85bd a75c 2b3d a724 7cbc e35e 713c
00000390: 2630 2abe 0f34 6b3d 3f9d 583d d4b7 14bd
000003a0: a18e 28be a5bb 56bd c60f 4bbe 8fb7 403d
000003b0: a909 a4bd 1847 0ebd 168a 693d 823b 033d
000003c0: 6045 013e 1412 07be 81dd ef3c a033 a7bb
000003d0: dce0 e7bb 453c 093c 29bf 11be c99d 7f3c
000003e0: 13f1 d1bb a841 d6bd 42d2 e33d 33f9 553d
000003f0: 2123 af3d 5405 2d3d f86a f13c 9950 1eb9

a2c_network.mu.bias f4 [8]
-0.21402685 -0.054429192 0.043431453 0.14242548 0.010674999 0.3848153 -0.50560564 -0.17594698
00000000: db29 5bbe 25f1 5ebd 2ee5 313d fcd7 113e
00000010: 31e6 2e3c 8306 c53e 5f6f 01bf 722b 34be

exp_avg f4 [8]
7.999845e-05 -0.00010727765 -0.00017019878 -4.36843e-08 0.00012791547 -0.00019493583 -0.00018690323 -4.8164908e-05
00000000: d7c4 a738 40fa e0b8 6377 32b9 659f 3bb3
00000010: 0c21 0639 b067 4cb9 74fb 43b9 ad04 4ab8

exp_avg_sq f4 [8]
3.1708518e-07 2.9187808e-07 2.9503732e-07 2.9858577e-07 2.8645687e-07 2.8421732e-07 2.8403844e-07 2.8141244e-07
00000000: db3b aa34 6bb3 9c34 9f65 9e34 514d a034
00000010: 55ca 9934 8896 9834 f27d 9834 0815 9734
