timechamber/models/ant_battle_2agents/policy.pth (torch, 698416 bytes, 36 tensors)

value_mean_std.running_mean f8 [1]
0	0x3fd6dafc859ce00c	0.3571158699810446

value_mean_std.running_var f8 [1]
0	0x4042c6f870cedd2b	37.55445680714396

value_mean_std.count f8 []
0	0x422ffdd000020000	68701126657.0

running_mean_std.running_mean f8 [59]
0	0xbf825ab0b3925e76	-0.008962040405364063
1	0xbfac52d991021651	-0.05531959433669143
2	0x3fe0515c292d58cb	0.5099316410294475
3	0xbf85a2d4b535b348	-0.010564481525500505
4	0x3f84c6f23d19f222	0.010145084848084688
5	0x3fa1e09b8ca13df4	0.03491674510643952
6	0x3fe38855e78f7792	0.6103925249733371
7	0xbf8ca46e5d8e4e0f	-0.01398550246248134
8	0xbfa1f4e94ed18aba	-0.03507165038242506
9	0xbfa15ee28547ba81	-0.03392703892665328
10	0x3f4ae4033b156a56	0.0008206382537239802
11	0x3f712eb686d5d2a0	0.0041949396085000645
12	0x3f795e56bda0205f	0.006193484145121968
13	0xbfbe3fc525fd2c43	-0.11816055467095148
14	0xbfeee43fb48de3b1	-0.9653624082994751
15	0x3fc875ef8aea0aaf	0.19109911234780472
16	0x3feccc5fe6de66ea	0.8999480733066012
17	0x3fb39bf8eade53cd	0.07659869894116796
18	0x3fee053ca999262f	0.9381392776933292
19	0xbfe459da9c2e1f2a	-0.6359684992212113
20	0xbfeb06910d38aed5	-0.844551587889749
21	0x3f930e39cdb4534e	0.018608954601478538
22	0x3f8dfeddc863b8b2	0.014646275213149405
23	0x3f7c7b89ffdafac8	0.006953753528874791
24	0xbfa37cf6f9abb3ef	-0.03806278035867893
25	0x3f8e02655a909aa1	0.014653007341690229
26	0xbf9d2e3c125ed2b3	-0.02849668371318854
27	0xbf6ae7f79ba584ab	-0.0032844387143745233
28	0x3fae46b524090cde	0.05913320603260684
29	0x3ff2b74425c2e886	1.1697427249005456
30	0x40035996e96b30f6	2.418744872649877
31	0x3fa06206c0741b4c	0.0319978818825378
32	0xbf5c1ea8d2707206	-0.001716294160139077
33	0xbfa67c55c0bb54d1	-0.043917350556208164
34	0x3fe0504e22d658cc	0.5098028831878536
35	0xbf845f9b88b03e17	-0.00994798193826711
36	0x3f8277764e2915cb	0.009016918430584739
37	0x3fa3dae742c22e8a	0.038779475115998954
38	0x3fe3ae99325848f2	0.61506328423482
39	0xbf7da844e07d460a	-0.007240551996646536
40	0xbf8756a4075b8277	-0.011395722841770024
41	0xbfc45877327a3a2d	-0.15894975628585098
42	0xbfeef1a8dcfa6eed	-0.9669994655591531
43	0x3fc3f8d8be5cf333	0.15603169722626262
44	0x3fecdb0b85b77089	0.9017388927127438
45	0x3faf8c13815f79b5	0.061615571539494075
46	0x3feddb58d308fed2	0.9330257531909985
47	0xbfe4c72c0d502a2e	-0.6493129978201233
48	0xbfeb458a9c503277	-0.8522389462464862
49	0x3f9443342a7fc21f	0.019787612050949584
50	0x3f900736fd98304f	0.01565252230470576
51	0x3f77fe40de6173d7	0.005857709306011003
52	0xbfa3e3f8719b34c4	-0.038848651760056835
53	0x3f902cba813ce3a9	0.015795625818302437
54	0xbf9f41b4d18e02e8	-0.03052408722897129
55	0xbf692742e407b47c	-0.003070479055387097
56	0x3facf060efc789f3	0.056521443624450905
57	0x3ff1d05352b9d6ac	1.1133607131463732
58	0x3f9d7742f410001f	0.028775259157555518

running_mean_std.running_var f8 [59]
0	0x3ff0a1b9442e6d04	1.0394833243688604
1	0x3ff05862025c10c3	1.0215778438733174
2	0x3fa9bf689ef67674	0.05028845730269618
3	0x3f9fe1486a007bdf	0.03113282343849366
4	0x3f9f866af0afef83	0.03078620046652204
5	0x3fd85346d3452663	0.3800828040299164
6	0x3fc78d74aef628c3	0.1840043882660379
7	0x3ff9ba0d0c5237be	1.6079225999160225
8	0x3ff9e8354723fab5	1.6191914347579488
9	0x3fea031eaf444d4c	0.8128808425121092
10	0x400008fff5435ac1	2.0043944512538876
11	0x400018243dda8568	2.0117878753959992
12	0x401c3ef655c54818	7.061486568609347
13	0x3fe280e7ac620c1a	0.5782354704718984
14	0x3f97e5ef1a7be7e0	0.023338066092925547
15	0x3fe242e98e0dff88	0.5706680082803226
16	0x3fb0a11e50cd4479	0.06495847199154693
17	0x3fdfec2d6a66117f	0.49879012480257495
18	0x3fa52deb8fdc5d08	0.041365968047268054
19	0x3fd6aba7ad46d4db	0.35422698899794874
20	0x3fb33dd401751d57	0.07516217265685064
21	0x40104a565e516219	4.072595094411121
22	0x3fb3104d9d221300	0.07446751676804908
23	0x4003e9e3c0e0ee8b	2.4892039364475003
24	0x3fbcd5906251c76b	0.11263372803094078
25	0x4015edd93a15fb39	5.482273967353472
26	0x3fbc800c322bc70f	0.11132885193708496
27	0x40043bb704ecc8b9	2.5291576752434506
28	0x3fe2374286f24d55	0.569245589797371
29	0x3fd921239f2cc836	0.39264765304972415
30	0x3fc7f9f166fc450f	0.18731515434823406
31	0x3f9fb7e5f39ff4dd	0.030974953646354265
32	0x3ff1c99978d093a4	1.1117186278654367
33	0x3ff171a00542fa7f	1.090240498116742
34	0x3faa242efe600661	0.051057308723113655
35	0x3f9ebaa242ae8b18	0.030008826560911833
36	0x3f9e51052f9a60cf	0.029605942755183186
37	0x3fd851b841cd8e13	0.3799877779585767
38	0x3fc7184e79d973ab	0.1804292769401433
39	0x4007d7567ebb858e	2.980145444963177
40	0x40078886c8cb1dfa	2.941663330744402
41	0x3fe2a257dc85a01e	0.5823172862119497
42	0x3f969475ff8f6207	0.022050708506727214
43	0x3fe2583a33fb5e8c	0.5732699408790309
44	0x3fb049f306c45f94	0.0636283771058273
45	0x3fdfa72fd7bbb50f	0.49457927768419635
46	0x3fa6b67a55e2869c	0.04436094568633317
47	0x3fd6110fc74fed94	0.3447913595589054
48	0x3fb2ba2f5bd97c71	0.07315345756932047
49	0x400e651e182a11d8	3.799373806747308
50	0x3fb457d6a1ddb393	0.07946530772978937
51	0x4003d0d48ee97b46	2.476967922687808
52	0x3fbe4af8e711a0b2	0.1183314861424403
53	0x4014161bf0c51d78	5.021590959578468
54	0x3fbe371445afb2aa	0.11802794171644373
55	0x40033083bf1e81f7	2.3986887866196827
56	0x3fe0b845718eed53	0.522494050782749
57	0x3fd8a4aa65228bcc	0.3850503909727052
58	0x3f9c9e6c9841696e	0.027948090355815074

running_mean_std.count f8 []
0	0x421ffdd000040000	34350563329.0

a2c_network.sigma f4 [8]
0	0xc02d782c	-2.7104597
1	0xc012d886	-2.2944655
2	0xc0588c89	-3.3835776
3	0x3fb991a3	1.449757
4	0xbfe0ecc4	-1.7572255
5	0xc002bc85	-2.0427563
6	0xc05e814a	-3.4766412
7	0xc041c5f4	-3.027707

a2c_network.actor_mlp.0.weight f4 [256, 59]
0	0xbe241cd3	-0.1602662
1	0xbe86e847	-0.2634909
2	0xbe1e40e2	-0.15454438
3	0xbca6366d	-0.020289624
4	0xbd565c0a	-0.05233387
5	0xbe0d8a33	-0.1382225
6	0x3dd3688f	0.10322677
7	0x3b962460	0.004581973
8	0x3cced8c9	0.025249856
9	0xbc8336b7	-0.016017301
10	0xbc84ada0	-0.016196072
11	0x3b1b88fa	0.0023732767
12	0x3e75a381	0.23988153
13	0xbca33fa9	-0.019927816
14	0xbbeac5c2	-0.007164688
15	0xbd009133	-0.031388473
16	0x3d3b5b0d	0.04574113
17	0x3c39d223	0.011341604
18	0x3d6f3d2b	0.058407944
19	0xbd207a6d	-0.039179254
20	0xbd635772	-0.055503316
21	0x3dbc673e	0.091993794
22	0xbd3606eb	-0.04444019
23	0x3e09a787	0.13442813
24	0xbc24d29c	-0.010059979
25	0x3e0f2bd5	0.13981564
26	0xbc2a2b81	-0.010386349
27	0x3de749fe	0.1129341
28	0xbcda1877	-0.026622994
29	0x3c35c9ec	0.011095505
30	0xbe54d78f	-0.20785354
31	0xbe3104ef	-0.17287038
32	0xbea0b24f	-0.3138604
33	0xbec2b92e	-0.38031906
34	0x3e12d215	0.14337952
35	0xbfae0363	-1.3594784
36	0xbfab9691	-1.3405324
37	0xbed8f98d	-0.42377892
38	0xbf243f4b	-0.6415908
39	0x3dd69e87	0.104794554
40	0xbe05781d	-0.13034101
41	0xbf1a7383	-0.60332507
42	0xbdea27d4	-0.11433378
43	0xbe37fb95	-0.17967065
44	0xbdd26d8a	-0.10274799
45	0x3d4caa2a	0.04996697
46	0xbc062454	-0.008187372
47	0x3c8d63b5	0.017259458
48	0xbd9b3c36	-0.07579844
49	0xbab6760e	-0.0013920681
50	0x3cbf8bc7	0.02338208
51	0xbc7ea29f	-0.015541702
52	0x3d6afda2	0.05737079
53	0xbd0af80e	-0.03392797
54	0xbcaa3874	-0.020778872
55	0xbde12565	-0.109934606
56	0xbcc2b89f	-0.023769675
57	0x3ecfd532	0.40592343
58	0xbe3b8198	-0.18311155
59	0x3f2765c6	0.6538967
60	0x3d9bbd23	0.07604434
61	0x3d296265	0.041353602
62	0x3d2ea6c7	0.04263952
63	0x3f6b85c3	0.9200098
64	0x3e9902ed	0.29885045
65	0xbf1d92c7	-0.6155209
66	0xbb48d6d9	-0.0030645637
67	0xbe41426d	-0.18872996
68	0xbf1684c8	-0.5879636
69	0x3d950def	0.07278048
70	0xbe6c81df	-0.23096417
71	0x3e8ef40c	0.27920568
72	0xbc0e65d2	-0.008691268
73	0x3c71ca4e	0.014757706
74	0x3e39bfd5	0.18139584
75	0x3e7903fe	0.24317929
76	0xbdc3cc5a	-0.09560461
77	0x3e5af495	0.21382363
78	0xbdedd21b	-0.1161234
79	0xbd81f8ae	-0.0634626
80	0x3dacc840	0.08436632
81	0xbac591d5	-0.0015073369
82	0x3db6df8e	0.089293584
83	0x3d9d4746	0.0767961
84	0x3e40497a	0.18778029
85	0xbca4cc85	-0.020117054
86	0x3e289cf5	0.16466124
87	0x3d38f7d1	0.04515821
88	0x3eaed01e	0.34143156
89	0x3f37904d	0.7170456
90	0xbf0e8457	-0.55670685
91	0xbf348113	-0.7050945
92	0xbe8e5fc9	-0.27807453
93	0x3eaec3eb	0.3413385
94	0x3c88f518	0.016718432
95	0xbc8aecf0	-0.016958684
96	0x3e277e48	0.16356766
97	0xbe56c00c	-0.20971698
98	0x3f610acf	0.8790712
99	0x3e72fe9b	0.23729937
100	0x3c66a133	0.014076519
101	0x3d58d9cd	0.052942086
102	0x3d686172	0.056733556
103	0x3f2fd8b5	0.68690044
104	0xbdaf5722	-0.08561541
105	0x3eef69a2	0.4676028
106	0xbdf2b88e	-0.11851607
107	0xbe99503c	-0.29944026
108	0xbd42fb7e	-0.047603123
109	0x3c1c3ffb	0.0095367385
110	0xbe1e1679	-0.1543826
111	0xbdfee6e6	-0.12446384
112	0xbd0e07be	-0.034675352
113	0xbe3f4739	-0.18679513
114	0x3e0d6eab	0.13811748
115	0x3e1b176a	0.1514565
116	0x3deb3222	0.114841715
117	0xbf06239c	-0.52398086
118	0x3e0673cd	0.13130112
119	0x3f0fa070	0.56104183
120	0x3ec5777b	0.3856772
121	0x3e9794dd	0.2960576
122	0x3c6ae33b	0.0143364025
123	0x3e3d54ee	0.1848943
124	0x3e1389a1	0.1440797
125	0x3ecbf8b5	0.39838186
126	0x3dea3d11	0.11437429
127	0xbe3a299e	-0.18179938
128	0xbcf72966	-0.030171108
129	0x3e40fbe3	0.18846087
130	0xbe69dfd9	-0.22839297
131	0x3d5af9f7	0.05346104
132	0xbc7106d2	-0.014711099
133	0x3f2603a8	0.6484933
134	0xbe7aaf4b	-0.24480931
135	0xbccb48e3	-0.024815029
136	0xbd80aa08	-0.06282431
137	0xbca9be03	-0.020720487
138	0x3db5744f	0.08860075
139	0xbd0ed5d8	-0.034871906
140	0xbdd8bf85	-0.105834045
141	0xbca440dc	-0.020050459
142	0x3e1ad0ae	0.15118667
143	0x3cf8c10c	0.03036549
144	0x3e6c860e	0.23098013
145	0xbc16d253	-0.009205419
146	0xbd4f6122	-0.050629742
147	0x3ecbcc9d	0.39804545
148	0xbea5be3a	-0.32371694
149	0x3f07faed	0.5311726
150	0xbe8839c8	-0.26606584
151	0x3f784d4c	0.96992946
152	0x3eb6e58f	0.35722014
153	0x3c82e37a	0.01597761
154	0xbd7efcbe	-0.062252752
155	0x3f07c19a	0.5302979
156	0x3e2ff832	0.17184523
157	0x3e713267	0.23554383
158	0xbe6d65ac	-0.23183316
159	0xbd77856e	-0.060429983
160	0x3dc660a6	0.09686403
161	0xbee7f81a	-0.45306474
162	0x3dc67b90	0.096915364
163	0x3dd5e3c3	0.10443833
164	0x3e14828a	0.14502922
165	0x3d7583ed	0.059940267
166	0xbe0f91c6	-0.14020452
167	0x3cad3fea	0.02114864
168	0xbc8a7a7c	-0.016904108
169	0x3e93ede7	0.28892443
170	0x3c88c956	0.016697567
171	0xbcc3d448	-0.023904935
172	0xbcd9ec09	-0.026601808
173	0x3d8e4b20	0.06947923
174	0x3c93959b	0.018015673
175	0x3e74e82d	0.23916693
176	0x3d3f4d45	0.04670455
177	0x3e13fb01	0.14451219
178	0x3d7ef9e4	0.062250033
179	0xc0217909	-2.5230124
180	0x3d06bd3e	0.03289532
181	0x3dc1e892	0.094681874
182	0x3d9e4be8	0.07729322
183	0x3ef21926	0.47284812
184	0xbd620233	-0.05517788
185	0x3dabc3c4	0.08386949
186	0xbdfd74a4	-0.12375763
187	0x3d9278c2	0.07151939
188	0xbd597843	-0.053093206
189	0xbdb2a1b7	-0.08722251
190	0xbe8bdd88	-0.27317452
191	0xbd5cae72	-0.0538773
192	0x3e99b73a	0.30022603
193	0x3e1bdf92	0.15222004
194	0xbafedf78	-0.0019445261
195	0x3d5473de	0.051868312
196	0xbdd4a972	-0.10383882
197	0x3e1330e3	0.14374118
198	0xbcdcedff	-0.026968954
199	0x3d374a04	0.04474832
200	0x3de18d1e	0.11013244
201	0x3d36e53c	0.04465221
202	0xbcd6054f	-0.026125578
203	0x3b914749	0.0044335467
204	0xbd8217d7	-0.06352203
205	0x3d65df54	0.056121185
206	0x3f4b0440	0.7930336
207	0xbe2ea563	-0.17055278
208	0xbd5a793e	-0.05333828
209	0xbead6dc4	-0.33872807
210	0xbdd1ac20	-0.10237908
211	0x3ea5d4d3	0.32388934
212	0xbe8352e0	-0.25649166
213	0x3ea68d0f	0.32529494
214	0xbe9dd226	-0.30824393
215	0x3e29324f	0.16523097
216	0x3e669351	0.22517134
217	0xbd646769	-0.055762682
218	0x3db5b861	0.08873058
219	0xbba93cd3	-0.0051647215
220	0x3e47ad59	0.1949972
221	0xbd2a23f5	-0.041538198
222	0x3dfdbfbc	0.12390086
223	0x3d493bca	0.049129285
224	0xbd973659	-0.07383413
225	0xbd956940	-0.072954655
226	0xbd656d9d	-0.05601274
227	0xbdd900db	-0.10595866
228	0xbcc9b960	-0.024624527
229	0x3d90058a	0.070323065
230	0x3d124daf	0.035718616
231	0x3dc4fa20	0.0961802
232	0xbd0d5dea	-0.03451339
233	0xbc79234c	-0.015206169
234	0xbf3cfd42	-0.7382394
235	0x3e993698	0.29924464
236	0x3f27bff5	0.6552728
237	0xbcf88627	-0.030337406
238	0xbe932583	-0.28739557
239	0xbe374862	-0.17898706
240	0xbdbf1557	-0.09330242
241	0x3def3564	0.11680105
242	0x3e966ddf	0.293807
243	0x3e2fa839	0.17154016
244	0xbc2adef8	-0.010429136
245	0x3c54a811	0.012979523
246	0x3d985724	0.07438496
247	0xbce513ad	-0.027963484
248	0x3e0f8a97	0.14017712
249	0xbd22b5dc	-0.039724216
250	0x3db40c4e	0.087914094
251	0xbd8f2633	-0.06989708
252	0xbe30e35b	-0.17274229
253	0xbd6c5407	-0.057697322
254	0xbe427981	-0.18991663
255	0x3e293474	0.16523916

a2c_network.actor_mlp.0.bias f4 [256]
0	0xbf4a03e4	-0.78912187
1	0x3dfbcb3e	0.12294625
2	0x3ea5b0e2	0.32361513
3	0xbc065820	-0.008199722
4	0xbebe0842	-0.37115675
5	0xbf0d77fe	-0.5526122
6	0x3f534575	0.8252786
7	0xbfc9ceff	-1.5766295
8	0x3f2e3f6a	0.6806551
9	0x3e7514ca	0.23933712
10	0xbf9c2129	-1.219762
11	0x3dc2b424	0.09507015
12	0xc02bb0ba	-2.6826615
13	0x3f3c9977	0.7367167
14	0x3e2ef935	0.17087252
15	0xbfbdfbf8	-1.484252
16	0xc019c994	-2.4029284
17	0x3fc363e3	1.5264858
18	0xbf233aea	-0.6376177
19	0x3eadef3e	0.3397159
20	0xbfa1041b	-1.2579378
21	0x3ec201ab	0.37891898
22	0xbfaf4ad4	-1.3694711
23	0xbf77cb8a	-0.9679495
24	0xbf47badd	-0.78019506
25	0x3dece7c2	0.11567642
26	0xbecf6e98	-0.40514064
27	0x3ea6aac6	0.32552165
28	0xbddd50ce	-0.10806428
29	0xbfbc1da7	-1.4696549
30	0xc026d7c3	-2.606919
31	0x3fb4cf14	1.4125695
32	0xbfb7140c	-1.4302993
33	0xbfffa4d9	-1.9972183
34	0xbf856855	-1.0422465
35	0xbfb494a2	-1.4107859
36	0xbfba7803	-1.4567875
37	0xbf97de0d	-1.186464
38	0xbf9adb5d	-1.2098194
39	0xbf0fdc1e	-0.5619525
40	0xbe5f73c2	-0.21821502
41	0xbf372eaf	-0.7155561
42	0x3f029750	0.51012135
43	0x3e8e7583	0.2782403
44	0xbf240049	-0.64062935
45	0xbc0a0563	-0.008424136
46	0x3f9ec49d	1.2403752
47	0xbf93722e	-1.151922
48	0x3f6a1b20	0.9144764
49	0x3ed72c0d	0.42025796
50	0x3f5ba25f	0.85794634
51	0xbbd44c4a	-0.006478821
52	0x3fa21375	1.2662188
53	0x3a133545	0.0005615543
54	0xbfb4c3c6	-1.4122245
55	0xbfef82d6	-1.8711803
56	0xbef76509	-0.4831927
57	0xbf0fc66e	-0.56162155
58	0xbd09c708	-0.033637077
59	0x402b101b	2.672858
60	0xbf9c8bf1	-1.2230207
61	0xbba4ee05	-0.005033257
62	0xbfb38d6d	-1.4027535
63	0xbf1f8a64	-0.6232054
64	0xbe28c236	-0.16480336
65	0xbf776dc7	-0.9665188
66	0x3e2ee1d5	0.17078336
67	0x3fa9a68f	1.3253955
68	0xc01657ca	-2.3491082
69	0xbf3c1065	-0.73462516
70	0x3fd07f1a	1.6288788
71	0x3fca35b8	1.5797644
72	0xbf030085	-0.5117267
73	0x3f8eb87b	1.1150049
74	0xbf34c271	-0.70609194
75	0x3e028754	0.12746936
76	0xbfc71c3f	-1.5555495
77	0x3f0e45a8	0.55575037
78	0xbff8e90b	-1.9446119
79	0x3fcb2ed5	1.5873667
80	0x3e014144	0.12622553
81	0xbfc6cf8a	-1.5532086
82	0xbeaa5c3e	-0.332735
83	0x3f01fcaf	0.5077619
84	0x3e4cfbf6	0.2001799
85	0xbf85111a	-1.0395844
86	0xbf2b7506	-0.6697544
87	0xbf2c6823	-0.673464
88	0xbfd2ff56	-1.6484172
89	0xbedf0409	-0.43557766
90	0xbf6586f1	-0.8965903
91	0xbf08bca1	-0.53412825
92	0xbf7d6e9d	-0.9899691
93	0x3f948d25	1.1605574
94	0xbfa875f5	-1.3160998
95	0xbe386285	-0.18006332
96	0xc02cc855	-2.6997273
97	0xbfcd8a04	-1.6057744
98	0x40057286	2.085115
99	0xbfb99787	-1.4499367
100	0xbf02b521	-0.5105763
101	0x3e8a7a1c	0.27046287
102	0xc00bf7e1	-2.1870043
103	0xbf38c7a7	-0.72179645
104	0xbf1a79e0	-0.60342216
105	0x40118a4d	2.2740662
106	0xbf80eddc	-1.0072589
107	0xc018481d	-2.3794014
108	0x3fc6d191	1.5532705
109	0x3f95e01d	1.1709019
110	0xbfc3f49e	-1.5309026
111	0xbf850713	-1.0392784
112	0xbfb88a45	-1.4417197
113	0xbfa45a59	-1.2840072
114	0x3e79c4b7	0.24391447
115	0x3eac6b1a	0.33675462
116	0xbf359d92	-0.7094356
117	0x3ea26cc8	0.31723619
118	0xbf5b9c6c	-0.85785556
119	0xbed59910	-0.4171834
120	0xbfe01abe	-1.7508161
121	0xbeaac883	-0.33356103
122	0xbf396407	-0.72418255
123	0x3f2fb369	0.68633133
124	0xbfd6d2ae	-1.6783044
125	0x3e9f297f	0.31086347
126	0xbeb78ea7	-0.35851023
127	0xbf7c1f5e	-0.9848536
128	0x3de3a7db	0.11116
129	0xc00284d0	-2.0393562
130	0xbed84485	-0.42239776
131	0xbf3d367e	-0.73911273
132	0xbefec0bd	-0.49756423
133	0x3fcf54b2	1.6197722
134	0xbfeb6309	-1.8389598
135	0xbef2b70d	-0.47405282
136	0xbf8f5757	-1.1198529
137	0xbf0ee316	-0.55815256
138	0xbf7539d0	-0.9579134
139	0x3ebf3805	0.37347427
140	0xbf54d279	-0.83133656
141	0xbf51239a	-0.8169495
142	0xbdb40183	-0.08789351
143	0xc007486a	-2.1137948
144	0xbf4896b0	-0.7835493
145	0xbe549705	-0.20760734
146	0xbf1cc4d8	-0.6123786
147	0x3fc02fd0	1.5014591
148	0xbe87d798	-0.26531672
149	0xbf20f4f3	-0.6287376
150	0xbf0602e2	-0.5234815
151	0x401437dd	2.3159096
152	0x3e9fb1c6	0.31190318
153	0x3e45c854	0.193147
154	0xbf9c305c	-1.2202258
155	0xbedbafaf	-0.42907473
156	0x3e957b1e	0.29195493
157	0xbf853346	-1.0406272
158	0xbef67966	-0.48139495
159	0xbfa4d0e3	-1.2876247
160	0x3f329815	0.6976331
161	0xbe093893	-0.13400488
162	0xbd6973c7	-0.05699518
163	0xbf4ecedd	-0.807844
164	0xbf9b32ba	-1.2124856
165	0x3f7d8fed	0.9904774
166	0xbf030e09	-0.5119329
167	0x3ffada79	1.9597923
168	0xbef0e9c8	-0.4705336
169	0x3fdb1d29	1.7118274
170	0x4016c3ea	2.3557076
171	0xbf67b229	-0.90506226
172	0x3f2b54c0	0.66926193
173	0xbf1a4e56	-0.6027578
174	0xc0300548	-2.7503223
175	0xbe2b8c08	-0.16752636
176	0xbed4560f	-0.41471907
177	0x3fd3542d	1.6510063
178	0x3ddd8b47	0.10817581
179	0xbfffb8e4	-1.9978299
180	0xbe6e9ebb	-0.23302738
181	0xc035a81c	-2.8383856
182	0xbe3fb0ec	-0.18719834
183	0x3f0c9636	0.54916704
184	0xbf6364e1	-0.88825804
185	0x3e6b7c27	0.22996579
186	0xbf68f383	-0.9099657
187	0x3fb75585	1.4322973
188	0xbf0c24b8	-0.5474353
189	0xbf995cd8	-1.1981459
190	0xbfa36088	-1.2763834
191	0xbf473781	-0.7781907
192	0xbfaf0d96	-1.3676021
193	0xbf662622	-0.89901936
194	0x3eb161a0	0.34644794
195	0xbf5c9b71	-0.86174685
196	0xbf0e0d72	-0.55489266
197	0x3f031451	0.51202875
198	0xbf61fd63	-0.8827726
199	0xbf7456de	-0.9544505
200	0xbfacbd01	-1.349518
201	0x3fa178c5	1.2614981
202	0xbf81339e	-1.0093877
203	0x3fd6b790	1.6774769
204	0x3ed2a666	0.41142577
205	0xbf4a8d5e	-0.7912196
206	0xbfe52735	-1.790259
207	0xbf31778d	-0.69323045
208	0xbf14d393	-0.58135337
209	0xbf61f8fb	-0.8827054
210	0x3f6a1d1c	0.9145067
211	0xbe94790e	-0.28998607
212	0x3f4a829e	0.79105556
213	0x3e2f6cd2	0.17131355
214	0xbf998e37	-1.1996526
215	0x3ea75dc9	0.3268874
216	0x3fc6f074	1.554213
217	0xbe1b3686	-0.15157518
218	0x3f2213fb	0.6331174
219	0xbf675373	-0.9036171
220	0xbe786869	-0.2425858
221	0xbfb6856b	-1.4259466
222	0x3f0bfd02	0.54682934
223	0xbfc674dd	-1.5504414
224	0xbf3d8517	-0.74031204
225	0xbf817c40	-1.0116043
226	0x400f4cab	2.2390544
227	0xbf8beb31	-1.093115
228	0xbe515bbf	-0.20445155
229	0xbfa03379	-1.2515708
230	0x3f7c4003	0.98535174
231	0xbf9b9603	-1.2155155
232	0xbed9ab84	-0.4251367
233	0x3fb1ddea	1.3895848
234	0xbf1bf9e7	-0.60928196
235	0xbfc35d41	-1.5262834
236	0xbbd8889e	-0.006608083
237	0xbea5cf30	-0.32384634
238	0xbf1186c9	-0.5684629
239	0xbfc3e8fb	-1.5305475
240	0xbc23f417	-0.010006926
241	0xbfda8abb	-1.7073587
242	0xc00bba41	-2.183243
243	0xbf9e097c	-1.2346644
244	0x3edbe79e	0.42950147
245	0xbf34f121	-0.70680434
246	0xc02e1ec1	-2.720627
247	0x401ae577	2.4202554
248	0x3f1b9b17	0.60783523
249	0xbf10b08d	-0.56519395
250	0x401a95c0	2.41539
251	0xc047e22f	-3.1231802
252	0xbf87730e	-1.0581987
253	0xbfe36179	-1.7764121
254	0x3ef65f9b	0.48119816
255	0xbfd2ff05	-1.6484076

a2c_network.actor_mlp.2.weight f4 [128, 256]
0	0xbeb3f3a8	-0.35146832
1	0x3d23076a	0.039801992
2	0x3dff30c5	0.12460474
3	0x3ef3121a	0.47474748
4	0xbe564458	-0.20924509
5	0xbdac80aa	-0.08422978
6	0x3da0196e	0.0781735
7	0xbd0d5e0e	-0.034513526
8	0xbd5b8f55	-0.05360349
9	0x39b0ad67	0.0003369853
10	0xbed279b7	-0.41108486
11	0x3e5001c3	0.20313172
12	0xbf2d35ee	-0.67660415
13	0x3e8b135d	0.2716321
14	0xbe2a2c07	-0.16618358
15	0x3df2565c	0.11832878
16	0x3eb52dc9	0.35386494
17	0xbe751bc9	-0.2393638
18	0x3e26d6fc	0.16292948
19	0x3d0125b7	0.03153011
20	0x3a71639b	0.0009208263
21	0x3e5410e0	0.20709562
22	0xbeaf2fa6	-0.3421604
23	0xbea0e69f	-0.3142595
24	0xbec4dc06	-0.38449115
25	0x3e1d957a	0.15389052
26	0xbd8ab1ea	-0.06772216
27	0xbbaf5874	-0.0053511206
28	0xbdda3414	-0.10654464
29	0x3e0106d8	0.12600267
30	0xbe3a482c	-0.18191594
31	0xbe8eb1ef	-0.27870128
32	0x3d697501	0.05699635
33	0xbe366dd8	-0.1781534
34	0x3d5eff54	0.05444272
35	0x3f03ca21	0.514803
36	0x3e95d4ce	0.2926392
37	0xbe4cd491	-0.20002963
38	0xbe72fac1	-0.23728468
39	0xbd04e674	-0.03244634
40	0xbf156a5b	-0.5836541
41	0xbe39569c	-0.18099445
42	0x3e90a7a9	0.28252915
43	0xbeaa1ff9	-0.33227518
44	0x3e68d155	0.22736104
45	0xbcce3254	-0.025170483
46	0x3ebddbe3	0.37081823
47	0xbe8de805	-0.2771608
48	0xbd8f7f19	-0.07006664
49	0x3e0eca29	0.13944305
50	0x3c244883	0.010027054
51	0xbf58ee90	-0.8473902
52	0x3e2d450f	0.16920875
53	0xbe1465cc	-0.14491957
54	0xbd51456a	-0.05109159
55	0x3e5a2b6f	0.21305631
56	0xbe8b7437	-0.27237102
57	0xbedbaee3	-0.42906865
58	0xbe2224dc	-0.15834373
59	0xbeb99eac	-0.3625387
60	0xbe356e8b	-0.1771795
61	0xbc96a179	-0.018387543
62	0xbe31ecf3	-0.17375545
63	0xbe9499dd	-0.29023638
64	0xbf391fe2	-0.72314274
65	0x3e3ba59c	0.18324894
66	0xbec5cc1f	-0.38632295
67	0x3e7324a3	0.23744445
68	0xbc9cefae	-0.019157257
69	0xbdd56dba	-0.10421319
70	0x3d75deed	0.06002705
71	0x3ba561e6	0.005047071
72	0x3e841b98	0.25802302
73	0xbdaa32bd	-0.08310459
74	0x3eb8bfab	0.3608373
75	0xbd55e22f	-0.05221766
76	0xbf031dad	-0.51217157
77	0x3da394b6	0.07987349
78	0x3d914fb9	0.07095284
79	0x3e7a95b5	0.24471171
80	0x3f1e92c5	0.619427
81	0x3d8ef4c3	0.06980278
82	0x3e0458ed	0.12924547
83	0xbf248f91	-0.64281565
84	0x3c4ca139	0.01248961
85	0xbcb4ebf6	-0.022085171
86	0x3e8d97eb	0.27654967
87	0xbebb9883	-0.36639795
88	0x3d3348a4	0.043770447
89	0xbddeb555	-0.1087443
90	0xbe1fe5f6	-0.15615067
91	0xbaf6670b	-0.001879902
92	0xbe3ef41e	-0.18647811
93	0xbe7496ad	-0.23885603
94	0x3d76729e	0.0601679
95	0xbbdd18de	-0.006747349
96	0x3e8185c4	0.25297368
97	0xbeb405a9	-0.35160568
98	0xbc5f1a7a	-0.013617152
99	0xbef484c8	-0.47757554
100	0xbdf8fffe	-0.12158202
101	0xbeabf857	-0.33587906
102	0x3e382a68	0.17984927
103	0xbd4f6520	-0.05063355
104	0x3eccb471	0.39981416
105	0xbe464aea	-0.19364515
106	0xbe632163	-0.22180705
107	0x3e791f67	0.24328385
108	0xbef7b702	-0.4838181
109	0xbf0339e9	-0.5126024
110	0xbe8ef617	-0.27922127
111	0xbe16659d	-0.146872
112	0xbe2f04bf	-0.17091654
113	0xbd3e1a70	-0.04641193
114	0xbc698c8f	-0.014254703
115	0x3e7d1081	0.24713327
116	0xbd280519	-0.041020487
117	0x3e85a87c	0.26105106
118	0x3e035541	0.1282549
119	0xbcc95ee0	-0.024581373
120	0x3eb8a6a1	0.36064628
121	0x3df99efb	0.12188526
122	0xbe84a548	-0.2590735
123	0x3d20d1e7	0.03926268
124	0xbd85fc07	-0.06542211
125	0x3f1059dc	0.56387115
126	0xbe93dffd	-0.28881827
127	0xbd244ef8	-0.040114373
128	0x3e002b77	0.1251658
129	0x3e403a48	0.18772233
130	0x3d233e3b	0.03985427
131	0xbe317169	-0.17328419
132	0x3ece9443	0.4034749
133	0xbd9a08f8	-0.07521242
134	0xbe3dd137	-0.1853684
135	0x3de7548d	0.11295424
136	0x3ef5cb25	0.4800655
137	0x3e6c2885	0.23062332
138	0xbe37d5cf	-0.17952655
139	0x3e8f609f	0.28003404
140	0x3dbe4a0f	0.09291469
141	0xbe7efe0a	-0.24901596
142	0xbddf4a3a	-0.109028295
143	0xbc1078c9	-0.00881786
144	0xbe57ecad	-0.21086378
145	0xbefc64cd	-0.49295655
146	0xbe82141f	-0.25405976
147	0xbc61a122	-0.013771327
148	0xbe2d091a	-0.16898003
149	0x3f1b041f	0.60553163
150	0xbdd203c2	-0.10254623
151	0xbe49e550	-0.19716382
152	0x3e5e6f39	0.21722116
153	0xbc959510	-0.018259555
154	0x3eadd392	0.33950478
155	0xbef00eed	-0.46886387
156	0xbef5bd4b	-0.47995982
157	0x3e94d12f	0.29065844
158	0xbd883f1c	-0.06652662
159	0x3f35da17	0.71035904
160	0xbe95a8a5	-0.29230228
161	0xbee2ad0a	-0.44272643
162	0x3d04a53c	0.032384142
163	0x3f120de2	0.57052433
164	0x3d6dcc55	0.058056194
165	0xbd7e3d10	-0.062069952
166	0xbef19a2a	-0.4718793
167	0xbe3a9720	-0.18221712
168	0x3e97418e	0.29542202
169	0x3d9b63e2	0.075874105
170	0xbe375f97	-0.17907558
171	0xbe481629	-0.19539703
172	0xbdf01bf0	-0.11724079
173	0xbdd72a8b	-0.10506161
174	0x3e8dd36a	0.2770036
175	0xbebcc567	-0.36869356
176	0x3d9b1e76	0.07574169
177	0xbee3a239	-0.44459704
178	0xbeb8b52c	-0.36075723
179	0xbd115420	-0.03548062
180	0xbf2f9332	-0.6858398
181	0x3e20ab5b	0.15690367
182	0x3d3cd00f	0.046096858
183	0xbde63c2c	-0.112419456
184	0x3e984749	0.29741886
185	0x3c8163b9	0.015794622
186	0xbf5faaa0	-0.8736973
187	0xbe95ae16	-0.2923438
188	0x3e7fbd2d	0.24974509
189	0xbe8d4a7e	-0.27595896
190	0xbcde9097	-0.027168555
191	0x3d8b7ef8	0.06811327
192	0xbd9fdd50	-0.07805884
193	0x3ed5f414	0.4178778
194	0x3e8838d9	0.2660587
195	0x3dd4ad72	0.103846446
196	0x3daef6f8	0.08543199
197	0xbe800337	-0.25002453
198	0x3e835898	0.2565353
199	0xbe3c7402	-0.18403628
200	0xbe95b5cc	-0.29240263
201	0x3e6b18df	0.22958706
202	0xbc7bd8c7	-0.015371508
203	0xbea89b22	-0.32930857
204	0xbe5806dd	-0.21096368
205	0xbe9f8742	-0.3115788
206	0x3eaaca1f	0.3335733
207	0x3eb602f5	0.3554913
208	0xbc411b19	-0.011786246
209	0xbd98d2c4	-0.07462075
210	0x3e47f685	0.19527633
211	0x3eccb76d	0.39983693
212	0xbda417a4	-0.080123216
213	0x3f23f392	0.64043534
214	0x3c30137d	0.010746834
215	0x3d8579c0	0.065173626
216	0xbdb14a33	-0.086567305
217	0xbe6a4639	-0.2287835
218	0x3d897e32	0.06713523
219	0x3e275142	0.16339591
220	0x3e0dddf7	0.13854204
221	0xbfaacbc6	-1.3343437
222	0x3b9fa654	0.004872123
223	0x3d86dbb9	0.065848775
224	0xbf012d11	-0.5045939
225	0x3e3b5829	0.18295349
226	0xbe4a19a0	-0.19736338
227	0x3d125910	0.035729468
228	0x3ecc2947	0.39875242
229	0x3e183ed3	0.14867716
230	0xbe14eec3	-0.14544205
231	0xbeba773f	-0.36419103
232	0x3e8b0588	0.27152658
233	0xbea0e03d	-0.3142108
234	0xbe18a654	-0.14907199
235	0x3ed4f018	0.41589427
236	0xbda82c06	-0.08211522
237	0xbd3c68a6	-0.045998238
238	0xbe76a582	-0.24086574
239	0x3ee6806b	0.4501985
240	0xbec55e85	-0.38548675
241	0x3cba99fd	0.022778505
242	0x3e4279f5	0.18991835
243	0x3e5b9646	0.21444044
244	0xbe4ec978	-0.20194042
245	0x3e015935	0.12631686
246	0xbe1663a6	-0.1468645
247	0xbe9c21f4	-0.30494654
248	0xbb013c3a	-0.0019719736
249	0xbd1f5bb8	-0.03890583
250	0x3e5a687d	0.21328922
251	0x3e14c957	0.1452993
252	0xbe0a5a78	-0.13511074
253	0xbdd25fde	-0.102721915
254	0x3ec6e64b	0.38847575
255	0x3e623d2e	0.2209365

a2c_network.actor_mlp.2.bias f4 [128]
0	0xbe5a7a74	-0.21335775
1	0xbdef2652	-0.11677231
2	0xbe4eab2c	-0.20182484
3	0x3cc2ea4d	0.023793364
4	0xbe0a11e9	-0.13483395
5	0xbea3025a	-0.31837732
6	0x3cf5c3fc	0.03000068
7	0x3e2ce122	0.16882756
8	0xbe92fb14	-0.28707182
9	0xbe0c0d98	-0.1367706
10	0x3e1e3844	0.15451151
11	0xbe8d26ec	-0.27568758
12	0xbed69ce7	-0.41916582
13	0xbee203fd	-0.44143668
14	0xbec37143	-0.3817235
15	0x3ce0db22	0.02744824
16	0x3d07f280	0.03319025
17	0xc038d73d	-2.888137
18	0xbed79bf2	-0.42111164
19	0xbe39e911	-0.18155314
20	0xbf28dad9	-0.65958935
21	0xbe0db5b0	-0.1383884
22	0xbe8cb5bf	-0.2748241
23	0xbe4e20f9	-0.20129766
24	0xbdc1ff64	-0.0947254
25	0xbe3a237b	-0.18177597
26	0xbea1ad7d	-0.31577674
27	0xbdf45857	-0.11930912
28	0xbd37f77d	-0.044913758
29	0xbdcb2eb6	-0.09921019
30	0xbcfcb3ad	-0.030847395
31	0xbf014114	-0.50489926
32	0x3d4726f2	0.048621126
33	0xbe5f1bb7	-0.21787916
34	0xbf2d34c1	-0.6765862
35	0xbed7e152	-0.42164093
36	0xbec021f5	-0.37525907
37	0xbe71156f	-0.23543333
38	0xbe76b202	-0.24091342
39	0xbeb555b3	-0.35416946
40	0xbebee6d3	-0.3728548
41	0x3b4d7d28	0.0031355117
42	0xbeb012af	-0.34389254
43	0xbdb88047	-0.09008842
44	0xc066d91e	-3.6070018
45	0xbca38a2c	-0.019963346
46	0xbec8b769	-0.3920243
47	0xbdbe325a	-0.092869475
48	0x3d512db8	0.05106899
49	0xbeaa96c5	-0.33318153
50	0xbe467552	-0.19380692
51	0xbe697ee5	-0.22802313
52	0xbe2ca3c3	-0.16859345
53	0xbe2f8ca7	-0.17143498
54	0xbecef549	-0.40421513
55	0xbdf22033	-0.11822548
56	0x3d1a6326	0.03769221
57	0xbef6b8fc	-0.48188007
58	0xbe8b606a	-0.27221996
59	0xbe4e7174	-0.20160466
60	0x3bea2776	0.0071458174
61	0xbecb90b5	-0.3975884
62	0xbdf8de58	-0.12151784
63	0xbe2151c0	-0.15753841
64	0xbd0d2d93	-0.03446729
65	0xbe8ed1f2	-0.2789455
66	0x3f860d5d	1.0472828
67	0xbed6c8b8	-0.4195001
68	0xbd9ecada	-0.077535346
69	0x395458ab	0.00020250927
70	0xbf0121c0	-0.50442123
71	0xbe0e3f4e	-0.13891336
72	0xbe45ec2c	-0.19328374
73	0xbe7c85b3	-0.24660377
74	0xbdfd83a3	-0.12378623
75	0xbe8b52bf	-0.27211568
76	0xbe841bb6	-0.25802392
77	0xbeba9ef2	-0.3644939
78	0x3e8b4876	0.2720372
79	0xbe23c3dd	-0.15992685
80	0xbe425a40	-0.1897974
81	0xbf3dc217	-0.7412428
82	0xbe909a97	-0.28242943
83	0xbdc2df6e	-0.09515272
84	0x3d013f09	0.031554256
85	0xbe0fe6d3	-0.14052896
86	0xbe295846	-0.1653758
87	0xbe9dc5a4	-0.3081485
88	0xbf059871	-0.5218573
89	0xbecea31d	-0.4035882
90	0x3c810945	0.01575149
91	0xbe7ed891	-0.24887301
92	0xbe65fa5f	-0.2245879
93	0xbe1850ed	-0.1487462
94	0x3e01607c	0.12634462
95	0xbecc9b85	-0.39962402
96	0xbe85d22b	-0.26136908
97	0xbc95e223	-0.018296307
98	0xbe718c91	-0.23588778
99	0xbd27581a	-0.040855505
100	0xbeac515a	-0.33655816
101	0xbe8dc6a2	-0.27690607
102	0x3b72ee88	0.0037068445
103	0xbdb58a38	-0.08864254
104	0xbe1d3e81	-0.15355875
105	0xbed78621	-0.4209452
106	0xbe784afa	-0.24247351
107	0xbdec2d26	-0.11532049
108	0xbea72eae	-0.326528
109	0x3ca7885f	0.020450769
110	0xbe6cda41	-0.23130132
111	0xbe945257	-0.2896907
112	0xbead6044	-0.33862507
113	0xbe896ebd	-0.268423
114	0xbef011a0	-0.46888447
115	0xbecc9157	-0.39954636
116	0xbec0c63d	-0.37651244
117	0xbe1463a6	-0.14491138
118	0xbe0ffdc9	-0.14061655
119	0xbebffe57	-0.37498733
120	0xbe9081b2	-0.2822395
121	0xbe52ccf1	-0.20585991
122	0xbc7cacc8	-0.015422054
123	0xbf07ccac	-0.5304668
124	0xbebf17c1	-0.3732281
125	0xbe8b6786	-0.2722742
126	0xbe4a2efa	-0.19744483
127	0xbee9a195	-0.4563109

a2c_network.actor_mlp.4.weight f4 [64, 128]
0	0xbe1d2bac	-0.15348691
1	0x3d66d297	0.056353178
2	0xbef5e458	-0.48025775
3	0x3e1713fc	0.14753717
4	0x3f208c04	0.62713647
5	0x3e3af55e	0.18257663
6	0x3d272da0	0.040814996
7	0xbe6fcb6a	-0.2341744
8	0xbd216d39	-0.039410803
9	0xbe177424	-0.14790398
10	0x3d1868be	0.037209265
11	0xbcdfe573	-0.02733109
12	0xbd77c4c4	-0.060490385
13	0x3eb4108a	0.35168868
14	0x3d54bff7	0.051940884
15	0xbe3beca2	-0.18351987
16	0xbe549e09	-0.2076341
17	0xbe0db014	-0.138367
18	0xbe6f3f1f	-0.23363923
19	0xbe8253fd	-0.25454703
20	0x3eb965ae	0.36210388
21	0x3b41df70	0.0029582642
22	0x3e1ab0c8	0.15106499
23	0x3e4984d5	0.19679578
24	0xbecd9b61	-0.40157607
25	0x3dccb230	0.09994924
26	0xbdd451b5	-0.10367147
27	0x3d5ee6c3	0.05441929
28	0xbe428c43	-0.18998818
29	0x3dd21d70	0.10259521
30	0x3c476312	0.012169616
31	0x3f12d049	0.5734907
32	0xbc936b4d	-0.017995501
33	0x3c447aa0	0.011992127
34	0x3c6babf0	0.014384255
35	0xbefacdb2	-0.48985058
36	0xbedd7604	-0.432541
37	0x3dcd0f1c	0.100126475
38	0xbd3924fa	-0.04520128
39	0xbcaa76bc	-0.02080857
40	0x3e13804e	0.14404413
41	0x3e339735	0.1753815
42	0x3f07bf07	0.5302586
43	0xbe8f8b3c	-0.28035915
44	0xbf8d3bda	-1.103389
45	0x3d8d2bea	0.068931416
46	0x3d0fbbf0	0.03509134
47	0xbb042dbd	-0.0020168864
48	0xbd436a2d	-0.04770868
49	0xbe7dd072	-0.24786547
50	0x3e1bb63b	0.15206234
51	0xbc2389d3	-0.00998159
52	0x3e1c9a92	0.15293339
53	0xbe40038e	-0.18751356
54	0x3f4d1fbb	0.8012654
55	0xbe9500c2	-0.2910214
56	0x3f02acbb	0.51044816
57	0x3e7f28f0	0.2491796
58	0x3eeb5641	0.45964244
59	0x3e43527d	0.19074436
60	0x3c4e3b8d	0.01258744
61	0x3da719ed	0.08159242
62	0xbccf05a6	-0.025271248
63	0xbd354751	-0.044257466
64	0x3e2759e3	0.16342883
65	0x3eaac8bc	0.33356273
66	0xbeef9e60	-0.46800518
67	0xbdfc2a40	-0.12312746
68	0x3d06f6a8	0.032950073
69	0x3e44f372	0.19233492
70	0x3e934e5e	0.28770727
71	0xbc1079e4	-0.0088181235
72	0x3e302b9a	0.17204133
73	0xbdfd1ac0	-0.12358618
74	0xbde95d9c	-0.11394808
75	0xbd58c08a	-0.052917995
76	0x3e109c26	0.14122066
77	0x3e66efa9	0.2255236
78	0xbdb24416	-0.087043926
79	0xbd0dceba	-0.034620978
80	0xbec30a58	-0.3809383
81	0xbd97ee97	-0.07418554
82	0x3db3e97a	0.087847665
83	0xbe26f5f2	-0.16304758
84	0xbd027aaa	-0.031855263
85	0x3e27d610	0.16390252
86	0xbe1a2dcb	-0.15056531
87	0xbe2d11b6	-0.16901287
88	0xbc118ba5	-0.0088833915
89	0xbea22a2d	-0.31672803
90	0x3cced03c	0.025245778
91	0xbeab291f	-0.3342981
92	0x3e3766de	0.17910334
93	0x3d3e9b0a	0.046534576
94	0xbe90418a	-0.28175002
95	0x3e1e0022	0.15429738
96	0xbd0d0f0b	-0.034438174
97	0xbef7d34d	-0.48403397
98	0xbd02d08b	-0.031937163
99	0x3d33f5ec	0.0439357
100	0xbd0fe3f1	-0.03512949
101	0x3b5882c4	0.0033036927
102	0xbeee6288	-0.46559548
103	0xbe650e36	-0.22368702
104	0xbecdc460	-0.40188885
105	0xbd68bc5c	-0.05682026
106	0xbebd8f58	-0.37023425
107	0x3d86ddac	0.06585249
108	0x3e9324fb	0.2873915
109	0xbeae93c2	-0.34097105
110	0x3d998bc3	0.074973606
111	0x3d435aa1	0.047693852
112	0xbe304839	-0.17215051
113	0xbe38fb61	-0.18064643
114	0xbe068795	-0.13137658
115	0xbe064b3e	-0.1311464
116	0x3db5c462	0.08875348
117	0xbe19d8c8	-0.15024102
118	0x3e8d8100	0.27637482
119	0xbe6a7ea8	-0.22899878
120	0xbe001fba	-0.12512103
121	0xbece6335	-0.40310064
122	0x3e0a7991	0.13522936
123	0xbea3b60f	-0.31974837
124	0x3de5dc7e	0.11223696
125	0x3e60a3c0	0.21937466
126	0xbe857335	-0.26064458
127	0x3df81b65	0.121146
128	0x3d9fcaef	0.078023784
129	0xbd3fe4a5	-0.04684891
130	0xbe0cb4e5	-0.13740881
131	0xbf3015be	-0.68783176
132	0xbe17f168	-0.14838183
133	0x3e4a91d6	0.19782194
134	0xbeec07e5	-0.46099773
135	0xbd44c6ee	-0.048041277
136	0xbdaaf0bd	-0.083466984
137	0xbe66b4ec	-0.22529954
138	0x3dd5f122	0.10446383
139	0xbe8ce88e	-0.27521175
140	0x3e32541e	0.174149
141	0x3e0e1714	0.13875991
142	0xbeb5c772	-0.35503727
143	0x3d8c2bbd	0.0684428
144	0xbd8a6579	-0.067576356
145	0x3e61ea2d	0.22061987
146	0x3c168d69	0.009188988
147	0x3ea0d254	0.31410468
148	0x3e341aa3	0.17588286
149	0xbe142618	-0.14467657
150	0x3e3c94bb	0.18416111
151	0xbe898ca2	-0.26865107
152	0xbe8a0888	-0.26959634
153	0x3df3da77	0.11906903
154	0xbf096bd1	-0.5368014
155	0xbabac8f1	-0.0014250559
156	0xbeb377ec	-0.3505243
157	0xbdfd80c9	-0.123780794
158	0xbe0e9fd1	-0.13928153
159	0x3eceb9ea	0.40376216
160	0x3ddf66c2	0.10908271
161	0x3e36ffbf	0.17870997
162	0x3eb7c073	0.35889015
163	0xbcc012c8	-0.023446456
164	0xbd02fff2	-0.03198237
165	0x3e89d739	0.26922014
166	0x3ead587d	0.33856574
167	0xbed0cf02	-0.40782934
168	0x3ecdbe10	0.4018407
169	0x3dac1316	0.08402078
170	0xbef5c824	-0.48004258
171	0x3d88d0c9	0.066804476
172	0x3e000f0d	0.12505741
173	0xbdec0093	-0.11523547
174	0xbdbf3ab0	-0.093373656
175	0xbea95b1d	-0.33077326
176	0xbe0f04f1	-0.13966729
177	0x3e7eaf22	0.24871495
178	0x3e4a6553	0.19765215
179	0xbf0d3217	-0.55154556
180	0xbd95d4f0	-0.07316005
181	0xbcdabc32	-0.026701067
182	0xbe9ed467	-0.31021425
183	0xbd61e73f	-0.055152174
184	0x3d89a830	0.06721532
185	0x3d7fc43f	0.062443014
186	0xbe89c977	-0.26911518
187	0x3e32bbed	0.174545
188	0xbe892933	-0.26789245
189	0xbe5b0d2a	-0.2139174
190	0x3dc2cd3a	0.095118
191	0xbe950c32	-0.29110867
192	0xbea4fa00	-0.32221985
193	0x3d8101d3	0.06299176
194	0xbe2b57e7	-0.16732751
195	0x3da24e92	0.07925142
196	0xbd5d0c3f	-0.053966757
197	0xbf0611aa	-0.52370703
198	0x3ce1bcb8	0.027555808
199	0xbe6ecc1e	-0.23320052
200	0xbe59db87	-0.2127515
201	0xbf0488c7	-0.51771206
202	0xbe5a6313	-0.21326856
203	0xbe99982a	-0.29998904
204	0x3e4cd966	0.20004806
205	0xbdf30a8c	-0.11867246
206	0xbdda063f	-0.106457226
207	0x3e6a1b5a	0.22861996
208	0xbe9d3cdc	-0.30710495
209	0xbed6a2d5	-0.41921106
210	0x3defc1b4	0.11706868
211	0xbd886ff2	-0.06661977
212	0xbeb5c4f1	-0.35501817
213	0xbd6cb5c2	-0.057790525
214	0xbeb0799f	-0.3446779
215	0x3e3bd9c1	0.18344785
216	0xbc64c1f6	-0.0139622595
217	0x3e8a2bf8	0.2698667
218	0x3d97234b	0.073797785
219	0xbe14c678	-0.14528835
220	0xbeb907fe	-0.3613891
221	0xbc17c5ba	-0.00926345
222	0x3c8746f3	0.016513323
223	0xbce92fcd	-0.028465176
224	0xbd82a72f	-0.06379544
225	0xbe166b9d	-0.14689489
226	0x3d94e791	0.0727073
227	0xbed8b5c6	-0.42326182
228	0xbe3e54a2	-0.18586972
229	0xbe6ed5b2	-0.23323706
230	0x3de525ef	0.11188876
231	0x3b883dc2	0.0041577527
232	0xbd9c3235	-0.07626764
233	0xbdcb3ee6	-0.09924106
234	0xbf45ed10	-0.77314854
235	0xbe999e2a	-0.30003482
236	0x3e0486d9	0.12942065
237	0xbe049ad0	-0.12949681
238	0x3ecd3d2f	0.40085742
239	0x3cf554f8	0.029947743
240	0xbef1db7d	-0.4723777
241	0xb980999b	-0.00024528507
242	0x3e8c0234	0.2734543
243	0xbe575a22	-0.21030477
244	0xbc481d1c	-0.0122139715
245	0x3e08fe7e	0.13378331
246	0xbeb1497b	-0.34626374
247	0x3dde9c46	0.108696505
248	0xbda3d9b6	-0.080005094
249	0x3d3b1552	0.04567463
250	0xbdabdc6e	-0.08391653
251	0xbd47799f	-0.04869997
252	0x3e59c20e	0.21265432
253	0xbe0146fa	-0.12624732
254	0x3e5db639	0.21651544
255	0x3e92149d	0.28531352

a2c_network.actor_mlp.4.bias f4 [64]
0	0xbe8f54bb	-0.27994332
1	0xbec8c32a	-0.39211398
2	0xbf05d759	-0.5228172
3	0xbe90bafb	-0.28267655
4	0xbf0e7799	-0.5565124
5	0xbec4517b	-0.38343415
6	0xbed9acaa	-0.42514545
7	0xbe7caf4a	-0.24676242
8	0xbf013cc1	-0.5048333
9	0xbed2d3ab	-0.41177115
10	0xbec75741	-0.38933757
11	0xbefefdb6	-0.4980294
12	0xbedc46e7	-0.43022844
13	0xbeb0e468	-0.3454926
14	0xbe8bfc12	-0.27340752
15	0xbe448716	-0.19192156
16	0xbf8bb9d4	-1.0916085
17	0xbe99e6ad	-0.30058804
18	0xbf1b2007	-0.60595745
19	0xbebbfe1a	-0.36717302
20	0xbf133b5f	-0.5751247
21	0xbfdc9906	-1.7234199
22	0xbe4b5fdb	-0.19860785
23	0xbba4b12e	-0.0050260043
24	0xbe50e720	-0.20400667
25	0xbe96cf9e	-0.29455274
26	0xbe4c534b	-0.19953649
27	0xbeea3f5b	-0.4575146
28	0xbed9d0d7	-0.42542145
29	0xbe5b5241	-0.21418096
30	0xbe92a3e0	-0.28640652
31	0xbf2f827f	-0.68558496
32	0xbec445d4	-0.38334525
33	0xbe8577ad	-0.26067868
34	0xbea3085d	-0.31842318
35	0xbe8194d1	-0.2530885
36	0x3cc0f809	0.023555772
37	0xc033a3bd	-2.8068688
38	0xbedda446	-0.43289393
39	0xbe56640c	-0.20936602
40	0xbeab0d1a	-0.33408433
41	0xbe569538	-0.2095536
42	0xbeabea50	-0.33577204
43	0xbddd03c1	-0.107917316
44	0xbe38538b	-0.18000619
45	0xbf204d72	-0.6261817
46	0xbef91591	-0.48649266
47	0xbe677f04	-0.22607046
48	0xbea2d47d	-0.3180274
49	0xbecd6177	-0.40113422
50	0xbe35a1b9	-0.17737474
51	0xbeedfab5	-0.46480337
52	0xbe6adbdd	-0.22935434
53	0xbe9a4a0b	-0.30134615
54	0xbeab457a	-0.33451444
55	0xbf546bed	-0.8297718
56	0xbeb4dcec	-0.353248
57	0xbece27c8	-0.40264726
58	0xbeb8524c	-0.36000288
59	0xbe6b9421	-0.23005725
60	0xbea5c414	-0.32376158
61	0xbf0afeab	-0.5429484
62	0xbec491d5	-0.3839251
63	0xbec5e176	-0.38648576

a2c_network.value.weight f4 [1, 64]
0	0xb9f0d930	-0.00045938184
1	0x3af2fb15	0.0018537963
2	0x3b887aff	0.004165053
3	0x3b26b677	0.0025438347
4	0x3a877690	0.0010335017
5	0x3a9db992	0.0012033454
6	0xb9b08d27	-0.00033674503
7	0xba4b7bb6	-0.000776227
8	0xb95d7bb7	-0.0002112229
9	0xbae4d500	-0.0017458498
10	0x39a28288	0.000309963
11	0xbbee2074	-0.0072670523
12	0x3ae73b5e	0.0017641594
13	0x3b670033	0.0035247921
14	0x39ab6645	0.00032691858
15	0xb9b1bf37	-0.00033902537
16	0x3ced1e6d	0.028945172
17	0x3b571940	0.0032821447
18	0x3e26b34c	0.16279334
19	0x3aa8ef3d	0.0012888681
20	0xbaecc4e7	-0.0018064053
21	0x3eefa62b	0.46806464
22	0x3a4891bd	0.0007651111
23	0xbd2f4f1c	-0.042800054
24	0xb9b030c4	-0.0003360567
25	0x3af3754e	0.0018574388
26	0x3ad4b10c	0.001622708
27	0xbb04ee9f	-0.002028383
28	0x3b0d3c0c	0.0021550683
29	0x3a507d31	0.0007953225
30	0x39b0bf24	0.00033711747
31	0x3d48307b	0.04887436
32	0xbe333c9e	-0.17503592
33	0x3a9f60e4	0.0012159613
34	0x3abc9764	0.001438838
35	0x382afb9b	4.0765484e-05
36	0x3deeb360	0.11655307
37	0xbecd7b4c	-0.4013313
38	0x393dde7d	0.00018107328
39	0xbd1b10fb	-0.03785799
40	0x3a940ec7	0.0011295908
41	0x399ce287	0.00029923415
42	0x3ad7b76e	0.0016457865
43	0x3baacb79	0.005212244
44	0xbb5f261e	-0.003404982
45	0xbc0709d1	-0.0082420865
46	0x3a598d04	0.0008298906
47	0x3b21d38a	0.0024692737
48	0x3a3988aa	0.00070775545
49	0xbb6f3bc2	-0.0036504124
50	0x3b367c99	0.0027845262
51	0xbb426fa7	-0.00296686
52	0xb9f17916	-0.00046057318
53	0x3aa599a1	0.0012634286
54	0x3bdaf767	0.0066823247
55	0x3e99ef12	0.3006521
56	0xbb296067	-0.0025844814
57	0x3c8671ad	0.016411627
58	0xbb0ace80	-0.0021180212
59	0x393c9778	0.00017985504
60	0xb993fa4e	-0.00028224516
61	0xbc17b13e	-0.009258566
62	0x3a046494	0.00050503877
63	0x37d256be	2.5074343e-05

a2c_network.mu.weight f4 [8, 64]
0	0x3de12abc	0.10994479
1	0xbccf9a7c	-0.025342219
2	0xbd83e531	-0.06440199
3	0xbc72f944	-0.014829937
4	0x3d40b233	0.047044944
5	0x3e151af0	0.14561057
6	0xbd0fd1ca	-0.03511218
7	0xbd0151cc	-0.03157215
8	0x3d4f4e2e	0.050611667
9	0xbc6cdd1d	-0.014457014
10	0xbcd55ead	-0.026046121
11	0x3c90f6b7	0.017695768
12	0x3cb284d8	0.02179186
13	0xbd496f56	-0.049178444
14	0x3e0ab51b	0.13545649
15	0xbe63a6ac	-0.22231549
16	0x3a016e8e	0.00049374334
17	0x3dbbe7a5	0.09175042
18	0xbcf57a00	-0.0299654
19	0xbd1ae4c2	-0.037815817
20	0x3ce8b1a8	0.028405026
21	0xbbf2fa23	-0.0074150725
22	0x3d1b40c3	0.03790356
23	0x3be0c813	0.006859788
24	0x3e1be4a7	0.15223943
25	0xbd942fff	-0.07235717
26	0xbd847e14	-0.0646936
27	0xbdd33c7f	-0.10314273
28	0x3d8c9485	0.06864265
29	0x3cc77396	0.024347108
30	0x3d25aefb	0.040450078
31	0xbc159267	-0.009129143
32	0x3d3b873e	0.045783274
33	0x3db802a0	0.08984876
34	0xbc1e6c9b	-0.009669448
35	0xbcfacf4a	-0.030616421
36	0xbc55d7e6	-0.0130519625
37	0xbc52d021	-0.012867005
38	0xbdb523fb	-0.08844753
39	0xbd0d49af	-0.0344941
40	0xbd9c7952	-0.076403275
41	0xbda79ac7	-0.08183818
42	0xbdcc1f29	-0.09966881
43	0xbd845564	-0.064615995
44	0x3cd0f6ed	0.025508368
45	0xbdc686fe	-0.096937165
46	0xbe3141ea	-0.173103
47	0x3ce90524	0.028444834
48	0xbd14eea3	-0.036360394
49	0x3d37e358	0.044894546
50	0x3d5d79b6	0.05407115
51	0x3c41e27b	0.011833782
52	0xbcdae70e	-0.026721504
53	0x3ba57eeb	0.00505053
54	0xbdeb40b6	-0.11486952
55	0x3ab457fb	0.001375913
56	0xbd71bdb5	-0.05901881
57	0x3dda2afe	0.10652731
58	0xbdbd46f0	-0.09242046
59	0x3c329c60	0.0109015405
60	0x3d885159	0.06656141
61	0x3de9ea94	0.11421695
62	0x3dada72d	0.08479152
63	0xbd2c7d55	-0.042111713
64	0x3dfbf9ca	0.12303503
65	0xbd419ee2	-0.047270663
66	0x3d95d06e	0.073151454
67	0xbe1ba9fb	-0.15201561
68	0x3e0b5257	0.13605629
69	0xbd87d0d7	-0.0663163
70	0x3e33017f	0.1748104
71	0xbde89678	-0.11356825
72	0x3d55ec21	0.052227143
73	0x3e3f0f8b	0.18658273
74	0xbd1020da	-0.03518758
75	0x3ddf89e0	0.109149694
76	0xbddc4e6d	-0.10757146
77	0x3ca43424	0.020044394
78	0xbdda4f15	-0.10659615
79	0x3e6d3f28	0.23168623
80	0x3aea90da	0.0017895952
81	0xbdf035ec	-0.11729035
82	0x3d85413d	0.06506584
83	0x3d4ae0a8	0.049530655
84	0x3da2e34b	0.07953509
85	0x3bd14b78	0.0063871704
86	0xbd95932e	-0.07303463
87	0x3c498fbf	0.012302338
88	0xbdec7672	-0.11546029
89	0x3dd2ebda	0.10298891
90	0xbe1fc8f4	-0.15604001
91	0xbde1ec17	-0.11031359
92	0x3d6e9de2	0.058256038
93	0xbd4b8a06	-0.049692176
94	0x3cd55159	0.026039766
95	0x3c65695b	0.0140021695
96	0xbdaaafde	-0.08334325
97	0x3c83d752	0.016093884
98	0xbdc9c47a	-0.09851928
99	0x3d11cb8c	0.035594508
100	0x3aafa9ee	0.0013402083
101	0xbbbcf846	-0.005766901
102	0xbc897823	-0.016780918
103	0x3d3ad6c4	0.045614973
104	0xbc111a7d	-0.008856413
105	0xbdf4ce34	-0.119533926
106	0x3d11577a	0.035483815
107	0x3cd2c92c	0.025730692
108	0xbdaed91b	-0.08537503
109	0xbb35ed39	-0.0027759804
110	0xbd2626e8	-0.040564448
111	0xbd4e7d76	-0.050412618
112	0xbdba4f94	-0.090972096
113	0xbddf7af5	-0.10912124
114	0x3e320e68	0.17388308
115	0x3d8a5798	0.067549884
116	0x3dff42e0	0.12463927
117	0xbcc5c383	-0.024141079
118	0xbd957443	-0.07297566
119	0xbbabc6ac	-0.0052421894
120	0xbc53379d	-0.012891677
121	0x3e50a753	0.20376329
122	0xbd2b7860	-0.041862845
123	0xbd73dc81	-0.05953646
124	0x3daa24b4	0.08307782
125	0x3e60da61	0.21958305
126	0x3e7afa75	0.24509604
127	0xbdc5ab87	-0.09651857
128	0x3dcfaf64	0.10140875
129	0xbd8c5115	-0.06851403
130	0x3d823446	0.063576266
131	0x3c339f72	0.010963308
132	0xbcb644ae	-0.022249546
133	0xbbfce54c	-0.007717764
134	0x3d924114	0.07141319
135	0x3c427fdb	0.011871303
136	0xbdd0bc9a	-0.10192223
137	0x3c11b08b	0.008892189
138	0x3d1b9ea3	0.037993085
139	0xbdbfa7d6	-0.09358184
140	0xbb4b1d5e	-0.0030992846
141	0x3cf3fb99	0.029783057
142	0xbd553dc2	-0.05206085
143	0x3d13c20e	0.036073737
144	0x3c59a0da	0.013282979
145	0xba5df548	-0.0008467031
146	0xbc87f0af	-0.016594259
147	0xbd769783	-0.060203087
148	0xbe0d5f38	-0.13805854
149	0xba92c810	-0.0011198539
150	0xbda1ce63	-0.07900693
151	0x3c82df7e	0.01597571
152	0x3c8c7f4f	0.01715055
153	0xbd16e4b1	-0.03683919
154	0xbd6c0110	-0.0576182
155	0x3c6619d6	0.014044246
156	0xbdaa97aa	-0.08329709
157	0x3c3178ff	0.01083207
158	0x3d2f1954	0.042748764
159	0x3c2ce789	0.010553249
160	0xbc782eab	-0.015147845
161	0x3db99aec	0.09062752
162	0xbca9d169	-0.020729737
163	0xba95c3e9	-0.0011426184
164	0x3ba450be	0.005014508
165	0xbbf75498	-0.007547926
166	0x3b7fc0b9	0.0039024784
167	0x3b97f717	0.0046376097
168	0xbbdb5c0b	-0.006694322
169	0x3cf98a65	0.0304615
170	0x3dbcc540	0.0921731
171	0x3cc20cd5	0.02368776
172	0x3c81ffb7	0.015869005
173	0xbcd94c41	-0.026525619
174	0xbd305ae5	-0.043055434
175	0x3d25e6de	0.040503375
176	0x3c741842	0.014898362
177	0xbd03ec64	-0.03220786
178	0x3ad622aa	0.0016337235
179	0x3dabeba9	0.08394558
180	0x3d5a2e73	0.053266954
181	0xbc7bc058	-0.015365683
182	0x3d998baf	0.07497346
183	0xbba2e2c0	-0.0049708784
184	0x3d028c22	0.031871922
185	0xbcca1447	-0.024667872
186	0x3bd8d3d1	0.0066170474
187	0x3d50c92a	0.050973095
188	0xbd558f26	-0.05213847
189	0x3d9a38a9	0.07530338
190	0x3d0a4f1d	0.033766855
191	0xbd86be9a	-0.06579323
192	0xc01222e9	-2.2833807
193	0x3f01afef	0.5065908
194	0xbf96d0d5	-1.178248
195	0xbf5692d6	-0.83817804
196	0x3e35b27e	0.1774387
197	0x3efb95e7	0.49137804
198	0x3ec4fbcb	0.38473353
199	0xbec5a152	-0.3859964
200	0x3e37eb01	0.1796074
201	0x3e9e1ccc	0.30881345
202	0xbd5ceacd	-0.05393486
203	0x3f0cc655	0.5499013
204	0x3e35651b	0.1771435
205	0xbe878483	-0.26468286
206	0x3f465866	0.77478635
207	0xbfe5f869	-1.7966434
208	0xc02f9927	-2.7437227
209	0xbe91cfd3	-0.2847887
210	0xbf928530	-1.1446896
211	0x3f03d5fa	0.5149838
212	0xbe8583bc	-0.26077068
213	0xbde9370d	-0.11387453
214	0xc0090469	-2.1408942
215	0xbf840dc1	-1.0316697
216	0xbff66ed9	-1.9252578
217	0xbe846064	-0.2585479
218	0xbcac3394	-0.021020688
219	0x3e4b01dd	0.1982493
220	0x3f01c28e	0.5068749
221	0x3f1af767	0.60533756
222	0x3c24a021	0.010047943
223	0x3caeb4fa	0.02132653
224	0x3e098704	0.1343041
225	0xbe873ec6	-0.2641508
226	0xbf692819	-0.9107681
227	0x3f765e27	0.96237415
228	0x3fa8c7f7	1.3186024
229	0xc000049c	-2.0002813
230	0x3f60ba37	0.8778414
231	0xbf8f6ad0	-1.1204472
232	0x3e01f458	0.12690866
233	0x3f3de575	0.7417825
234	0x3f016b2c	0.50554156
235	0x3e9890d9	0.2979801
236	0xbec9503a	-0.3931902
237	0xbf0f4204	-0.55960107
238	0x3ddac0fe	0.106813416
239	0x3ea30802	0.31842047
240	0xbfd2a978	-1.6457968
241	0x3ea246c6	0.3169462
242	0xbf0167e0	-0.50549126
243	0x3f5470ee	0.8298482
244	0xbe3d4e6a	-0.18486944
245	0x3e80e0c0	0.2517147
246	0x3efd0442	0.4941731
247	0xbef187e2	-0.47173983
248	0x3f112f97	0.5671324
249	0x3e345678	0.1761111
250	0xbfeaeeb1	-1.8354093
251	0xbf0c694f	-0.5484819
252	0xbfa62433	-1.2979797
253	0x3d6fb5e2	0.058523066
254	0xbe4960ee	-0.19665882
255	0x3e956637	0.29179546

a2c_network.mu.bias f4 [8]
0	0xbe2e586e	-0.17025921
1	0xbea4c19f	-0.3217897
2	0xbdb96700	-0.09052849
3	0xba62a60b	-0.0008645958
4	0x3ec14d27	0.37754175
5	0x3e96e30a	0.29470092
6	0xbe6d9fa5	-0.23205431
7	0xbdbfd682	-0.09367086

exp_avg f4 [8]
0	0xb924743d	-0.00015683561
1	0xb8384000	-4.3928623e-05
2	0x36a23817	4.834506e-06
3	0xb84bd9d7	-4.860185e-05
4	0xb8e6fe86	-0.00011014663
5	0x36bea001	5.681068e-06
6	0xb752f3e2	-1.2573759e-05
7	0xb6810925	-3.845564e-06

exp_avg_sq f4 [8]
0	0x33cad1c1	9.444512e-08
1	0x33c7542e	9.281972e-08
2	0x33d0cc1d	9.722883e-08
3	0x33b4cf34	8.419593e-08
4	0x33bd99cd	8.8289745e-08
5	0x33bfc911	8.930704e-08
6	0x33b6940f	8.501967e-08
7	0x33e6aa50	1.0741189e-07
